demo_LSTM_preAD_Risk_v1_2b/output/LSTM_determ_res_mono_risk_TSGAIN_smooth.pt (torch, 260144 bytes, 25 tensors)

imputation_module.generator.net.0.weight f4 [64, 8]
000000 7b 45 a0 3e 8d 22 73 be 91 8f 64 3e 2c 8d eb 3d
       0.3130301 -0.23743649 0.22320391 0.11501536
000010 b2 16 4e 3d 62 b6 3d ba a6 75 f5 bd 9a 15 b9 3e
       0.050314613 -0.0007236955 -0.1198533 0.36149293
000020 6b 06 98 bc c0 54 ac 3e 18 34 0b 3c 06 d1 94 bc
       -0.018557748 0.3365841 0.008496307 -0.018166076
000030 0c b6 fa 3d 26 3c 13 3e 5d 25 d6 bd 48 24 7b be
       0.12241754 0.14378414 -0.10456345 -0.24525559
000040 aa 61 71 bd eb d4 81 3d b2 11 f5 3d 45 fe 98 3e
       -0.05893103 0.06339439 0.11966266 0.29881492
000050 a5 56 3c 3d 1a 58 31 be 72 8b 84 3e 2b 9c 3a 3d
       0.04598107 -0.17318764 0.25887638 0.04555909
000060 04 23 74 be 9a 37 aa be 2d 5e 38 3e 3b 1b 97 bc
       -0.23841482 -0.33245546 0.18004675 -0.018445602
000070 8a 4d 54 be 9f e5 6e 3d 41 a5 92 3e 11 6a a0 3d
       -0.20732704 0.058324452 0.28641704 0.078327306
000080 9a 69 a9 be 2d e4 b5 be bd a9 a5 3e ea aa 91 3e
       -0.3308838 -0.35525647 0.32356063 0.2845071
000090 70 55 38 3e cd d9 4d be 64 2d 05 3e ed 08 8d 3e
       0.18001342 -0.20102616 0.13005596 0.27545872
0000a0 aa 03 41 be 6d 0e f0 3c e1 88 71 be 1e ba 53 bd
       -0.18849054 0.029303754 -0.23587371 -0.051691167
0000b0 0e bf bd 3c 73 a9 a2 3e 33 f4 d6 bd 7a cd 99 3e
       0.023162391 0.31769904 -0.10495796 0.3003958
0000c0 1c e3 96 bd b1 78 65 3e 32 62 df bd 27 f0 54 3e
       -0.073675364 0.22409321 -0.10907401 0.20794736
0000d0 f6 36 9b 3d b5 7f 89 bd b7 90 49 be c0 40 98 3d
       0.07578842 -0.06713811 -0.1968411 0.07434225
0000e0 96 be fb 3d 6e 91 88 be 73 ec a7 3d 18 5a 0a 3e
       0.12292211 -0.26673454 0.08199396 0.1351093
0000f0 bd 84 43 3e 46 36 84 3d c0 d7 7b be 0b 48 7b 3d
       0.19093604 0.06455664 -0.24594021 0.061348002
000100 f1 a2 0f be ff 8d 41 be 68 aa 8e be 92 e8 40 3d
       -0.14027001 -0.18901823 -0.27864385 0.047096796
000110 f0 de 59 3e a9 3c 01 be 95 66 8c 3e 76 c3 b4 bd
       0.2127645 -0.12620796 0.27422014 -0.08826344
000120 f0 36 fb 3d d6 35 48 be b8 2c 34 be 66 b9 4a be
       0.12266338 -0.19551787 -0.17595184 -0.19797286
000130 fa b1 77 be 99 53 7a 3e b5 25 61 3e 4c df 82 be
       -0.24188986 0.24445952 0.2198704 -0.25560987
000140 a8 a3 57 3e fd 1f 2c bd 16 d9 85 3e b2 03 2a be
       0.21058524 -0.042022694 0.26142186 -0.16602972
000150 c1 ea da 3d f2 4c 39 bd e2 47 47 3d 49 63 9e 3e
       0.10689307 -0.045239396 0.048652537 0.30935124
000160 6e d3 80 be ff 5e f4 3d fb 46 85 be 72 4f 00 3e
       -0.25161308 0.119321816 -0.26030716 0.12530306
000170 15 98 49 3d 0e 07 80 bd bc 30 6c 3d 3d e7 87 be
       0.049217302 -0.062513456 0.057663664 -0.26543608
000180 d6 1d 1c bd 97 c6 c7 bd d3 84 5f bb c3 f4 96 3e
       -0.03811439 -0.09754675 -0.003410627 0.29483613
000190 e4 1a 9c 3e 1a cc 54 bd ae a9 95 3d 54 a8 44 3d
       0.30489266 -0.05195246 0.073077545 0.048012093
0001a0 90 fc f3 bd ac 1b 8d 3c 19 39 f1 bd 3e d0 4d 3e
       -0.11913407 0.017225109 -0.11778469 0.2009897
0001b0 7e 15 a6 3d db c5 86 3e 64 ca 05 3e 71 2e 21 bd
       0.08109568 0.26322827 0.13065487 -0.03935093
0001c0 7e 6d eb 3c 38 7e ad ba 12 16 90 3e ac bd 9b 3c
       0.028738733 -0.0013236469 0.28141838 0.019011341
0001d0 a4 0e 06 3e be 25 9c 3d 0d c7 0d bd 40 3e 7f 3e
       0.13091522 0.07624386 -0.034613658 0.2492609
0001e0 cf ac 56 be 23 24 2c bd 1b 7a 6e 3d ee 64 81 bd
       -0.20964359 -0.04202665 0.058221918 -0.06318079
0001f0 b7 23 2b be 73 62 c1 3d b6 c1 55 3e 26 fe 86 3e
       -0.16712843 0.09442606 0.20874676 0.26365775
000200 b7 dd 65 bd dd 41 81 3e 5d 7a 55 3e e0 73 61 3e
       -0.056119647 0.25245562 0.20847459 0.22016859
000210 6d af a6 3e c1 32 e3 bd f7 0f 8c 3e f0 b3 c7 3d
       0.32555714 -0.11093665 0.2735593 0.09751117
000220 58 32 10 3e be f4 95 be 70 a1 4c be c6 38 07 3e
       0.14081705 -0.29288286 -0.19983459 0.13205251
000230 07 de 06 be 5b f0 1c be 1f 5b 20 3e b7 b0 dc bd
       -0.13170634 -0.15326063 0.1565976 -0.10775893
000240 56 cc da bd 3e bd 23 3e 07 74 af 3e 0e e4 6b be
       -0.10683505 0.15990159 0.3426821 -0.23036215
000250 6e ca 1f be 94 ae b7 3e 63 83 19 be 5f 8a 92 3e
       -0.15604565 0.3587538 -0.14991526 0.28621194
000260 7a 47 99 bd 32 ce 1a be 8f 11 45 3e 51 bd 9f 3e
       -0.07484336 -0.1511772 0.1924498 0.31199124
000270 8f b7 6e 3d 31 2c b8 3d 11 1d 03 be 3d 25 8a be
       0.058280524 0.08992804 -0.12804057 -0.26981536
000280 29 09 d4 bd dd ca 17 bd 4f 37 93 bd 72 da 25 be
       -0.1035331 -0.0370587 -0.07188284 -0.16196612
000290 4c 06 b4 bd f2 1b 41 bd ce 39 ec 3d 67 b2 08 3e
       -0.087902635 -0.04714579 0.11534463 0.13349305
0002a0 bb 28 98 ba eb ae 73 3e 8c fc 95 be f3 20 04 be
       -0.0011608818 0.23797195 -0.2929424 -0.12903194
0002b0 f7 88 3c 3e 8c 0f b2 bd 3a 97 a6 3e 6a 9c 5b be
       0.18411623 -0.086943716 0.32537252 -0.21446386
0002c0 42 7a 34 be a4 19 8a be c9 13 98 be 98 a2 47 be
       -0.17624763 -0.26972687 -0.29702595 -0.19495618
0002d0 71 98 3d be 65 e4 6a 3e 97 36 80 be 63 b8 ce 3c
       -0.18515183 0.22938688 -0.2504165 0.025234407
0002e0 76 a1 29 be 12 d2 eb bd 93 cb 08 bb 1f 9b 3e be
       -0.16565499 -0.11514677 -0.0020873293 -0.18613862
0002f0 61 dc fc bd 6d fd 9e bd 01 a3 d1 3d b5 76 ac 3e
       -0.123467214 -0.07763181 0.10236169 0.33684316
000300 32 2d 63 3c f8 7b ea be 82 f5 00 3e f9 96 95 bd
       0.013865756 -0.45797706 0.12593654 -0.073041864
000310 a0 a2 1b be 7c 77 ee 3c c8 00 9d bc 7e 22 3e 3c
       -0.15198755 0.029109709 -0.019165412 0.011604903
000320 52 18 99 3e c3 4b 2c 3e ad 36 49 be d7 5a e2 bd
       0.29901367 0.16825776 -0.19649763 -0.110524826
000330 39 d7 02 3d 88 eb a0 3d 18 bb 6b be d0 7b 90 bd
       0.031943534 0.07857424 -0.2302059 -0.07054865
000340 a5 54 b2 bc 87 f5 81 3b cc e0 82 be 29 b4 98 be
       -0.021768877 0.0039660367 -0.2556213 -0.2982495
000350 a0 be 46 3e d0 59 52 be 3d a6 0c bd 84 43 61 be
       0.19408655 -0.20542073 -0.034338225 -0.21998411
000360 e8 ec e4 bc 05 68 8c 3d 2c b7 53 be 11 6a dd bb
       -0.027944997 0.06855778 -0.20675343 -0.006757029
000370 99 cc 5c be 43 a4 55 bd cc 76 9c 3e 93 99 20 3e
       -0.21562423 -0.052158605 0.30559385 0.15683584
000380 71 75 b8 3e 8a a0 a2 3e 2a 08 2e be 53 b0 e1 bd
       0.360271 0.31763107 -0.16995302 -0.11019959
000390 af 60 3b 3e 56 c4 40 bd 35 e7 3d be 55 c3 f2 bd
       0.182986 -0.04706224 -0.1854523 -0.11853663
0003a0 08 df ae bd d3 64 85 3e 03 8f 8f be 3a bd 13 be
       -0.085386336 0.26053485 -0.28038797 -0.14427653
0003b0 43 29 a3 bd 59 8f 9a 3e 85 9a 49 bb 42 0d cf 3c
       -0.079668544 0.3018749 -0.0030762267 0.025274877
0003c0 e5 96 fb 3d b4 70 86 be 36 0c a5 3d 38 c2 a7 be
       0.1228464 -0.2625786 0.0805897 -0.32765365
0003d0 fc 15 d4 3d d9 2d c1 3d 11 bf 78 3e 2f b7 7e be
       0.10355756 0.09432573 0.24291636 -0.24874566
0003e0 29 cd 75 3e bf 1f 97 be 77 c5 7f 3e db b3 77 3e
       0.24004044 -0.29516408 0.2497767 0.24189703
0003f0 e7 ca eb bd 57 9a a9 3d 65 b7 c0 bc 31 0b 48 be
       -0.1151331 0.08281391 -0.02352495 -0.19535519

imputation_module.generator.net.0.bias f4 [64]
000000 10 f7 1b 3d b3 de 16 bd b6 e2 38 3d a6 5c ba 3c
       0.038077414 -0.036833476 0.045138083 0.022749256
000010 e3 06 a7 3c d6 44 ab 3c c6 95 2f 3d 4c b5 12 bd
       0.020389026 0.020906847 0.042867444 -0.03581743
000020 26 28 1e 3d a9 c7 b8 bb af 1b 26 3d 1b 54 29 bd
       0.038612507 -0.0056390357 0.040553745 -0.041339975
000030 73 0e 42 3d ca c7 e4 3c 26 7e ab 3d ea d4 06 bd
       0.04737706 0.027927298 0.0837367 -0.032917894
000040 fc 2c 8c 3d 6f 82 b7 3a 11 79 3b 3d a8 3b e9 3c
       0.068445176 0.0014000664 0.045769755 0.02847083
000050 46 b6 94 bc 89 db 41 3d 2b e2 0f bb 99 2a 6a 3c
       -0.018153321 0.047328506 -0.0021954875 0.014292383
000060 81 cd e0 bd 41 50 3f bd b2 61 38 3b 96 e7 39 3d
       -0.10976697 -0.046707395 0.0028134403 0.045386873
000070 b9 97 0f 3b 1d 57 00 3d 8a ba 84 3c 4a 17 64 3d
       0.0021910502 0.031333078 0.01620223 0.055686273
000080 8a 1d da bc 4e 14 23 bd 0b 13 5b bd 05 c6 c2 bc
       -0.026625413 -0.039814286 -0.053484958 -0.023776064
000090 cf 23 18 bd 49 aa 2b 3c 9f 52 b8 bd 81 ed b9 3c
       -0.037143525 0.010477611 -0.09000134 0.022696259
0000a0 e0 e5 ee bb 21 48 ba 3c 62 78 8a bd 2d 5c e5 bc
       -0.007290587 0.022739472 -0.067612424 -0.027998054
0000b0 19 2c 23 bd 74 05 f8 bc ba 4d 13 3c 48 a9 41 3c
       -0.039836977 -0.030276038 0.008990699 0.011820145
0000c0 e2 28 27 3c 8b 30 96 3c 2a 50 96 bd a1 b9 40 3d
       0.010202618 0.018333694 -0.07339509 0.04705203
0000d0 9f 8c 22 bd 08 8e 05 bd f8 29 e1 bc 65 bc 10 3c
       -0.039684888 -0.032606155 -0.027485833 0.008833979
0000e0 ad 64 56 3d 3f 8b 13 3d f3 91 8b bd 6c de 8b 3b
       0.052342106 0.036021467 -0.06814947 0.004268458
0000f0 e6 83 12 3a 9f f4 c2 bc c6 b8 10 3d d2 c5 fa 3c
       0.00055891124 -0.023798285 0.035332464 0.030611906

imputation_module.generator.net.2.weight f4 [64, 64]
000000 c9 b9 cc bd b3 73 76 bb 8c 3a 05 bd 54 2c ad 3c
       -0.09996373 -0.0037605583 -0.032526538 0.021139301
000010 24 7e 5a 3c 9d 80 ff bd 88 4e 86 3d 7c 2d c8 3d
       0.013335738 -0.12475703 0.065579474 0.097743005
000020 02 7c b9 bd 96 f9 c4 bd a4 a4 5c 3e c9 3b 13 3e
       -0.09056856 -0.09617917 0.2154718 0.14378275
000030 73 93 b3 3d 23 59 8d 3d b9 7b 1e 3e 75 77 d1 bd
       0.08768358 0.06901767 0.15476884 -0.10227863
000040 f6 2c 0a 3e 0b db 1f 3e 51 06 18 3e 0c 46 0e 3e
       0.13493714 0.15610902 0.1484616 0.13893908
000050 2d 7c 0a be 6b c4 0c 3e fb 63 3b be 37 ce 14 3d
       -0.13523932 0.13746803 -0.18299858 0.036329474
000060 0c 21 c5 bd 00 ee 82 3d 2a f5 12 bc e9 da f7 3d
       -0.09625444 0.06393051 -0.0089695845 0.12102301
000070 b2 b1 37 3e 17 02 3c 3c bd db c0 bc 60 fd e3 bd
       0.17938879 0.011475108 -0.02354228 -0.11132312
000080 dc 3e 71 bd 89 de 83 3d f2 ac cc bb b6 c8 43 be
       -0.058897838 0.064389296 -0.0062462026 -0.19119534
000090 17 22 22 be 10 00 c2 bd a5 09 3e 3d c1 5e 26 bd
       -0.15833317 -0.09472668 0.046395916 -0.040617708
0000a0 e1 cf 25 3d 8a 75 56 3e ed 0e 43 bd 8f 87 4e 3e
       0.040481452 0.20943275 -0.047621656 0.20168899
0000b0 90 e7 1d 3d 23 9f 0c bd 5a a4 42 bd d3 b6 39 bd
       0.038550913 -0.034331452 -0.04752002 -0.04534037
0000c0 b3 e7 5f 3c 53 59 59 bc 95 73 8c 3e 86 69 10 3d
       0.013666081 -0.013265925 0.27431932 0.035256885
0000d0 0f d3 e4 bd 2d fd 61 be ea ac 74 bd 0f 2e 49 3e
       -0.11173069 -0.22069235 -0.059735216 0.19646476
0000e0 a1 86 11 bd 35 c8 fb 3d 6b df bc bc 49 92 36 3e
       -0.035528783 0.12294046 -0.023055753 0.17829241
0000f0 da bc 06 3e 30 1f 0a 3d eb 17 fe 3c 20 9b 59 3e
       0.13157979 0.03372115 0.031017264 0.21250582
000100 56 44 44 be b3 06 71 3c c0 10 46 3e 32 f0 56 bd
       -0.19166693 0.01471107 0.19342327 -0.05247516
000110 5e 0c 2c 3e c3 ff aa 3d 83 4c 34 bd 3e 84 86 3d
       0.16801593 0.08349564 -0.04401828 0.06568192
000120 27 f8 79 3d 9a 9b f6 bc de 3e d2 bd 97 7f 9a bd
       0.061027672 -0.030103493 -0.10265897 -0.07543867
000130 3d 5c b4 bd 4d c2 e3 3d 49 91 14 bd 4b fe e7 bc
       -0.088066556 0.11121044 -0.036271367 -0.028319499
000140 9e 21 5a bd fd bb 03 be 11 42 ca bd 1a 94 10 3e
       -0.053254716 -0.1286468 -0.098758824 0.14118996
000150 f3 de 0e 3e 40 37 20 be 4a ec b7 3c d6 b6 c6 3d
       0.13952236 -0.15646076 0.022451539 0.09702842
000160 c2 a5 39 3e 6e c5 85 3d dd 85 d5 bd 43 00 30 3d
       0.18129638 0.06531797 -0.10425923 0.042969
000170 24 48 08 be 85 13 f5 bd f7 87 37 3d 08 74 96 3d
       -0.1330877 -0.11966614 0.0448074 0.0734635
000180 35 b4 f8 bd 1a 2e fc 3d a3 c1 a7 bd f0 35 f7 bc
       -0.12143747 0.12313481 -0.0819123 -0.030177087
000190 38 00 fa bc 2c 28 af 3d 22 2b 8c bd 53 42 ac 3d
       -0.030517682 0.08552584 -0.068441644 0.08411088
0001a0 51 2e b6 3d c6 61 a7 3c 98 6c 35 3e 21 b5 54 3d
       0.08895553 0.020432364 0.17717206 0.05193055
0001b0 16 73 4d bc b8 f8 38 be 3d 10 f8 bd dd 7d b3 3c
       -0.012539646 -0.18063629 -0.12112472 0.021910602
0001c0 56 df 7d 3e 81 98 8d be 5d bf 22 3e 18 40 a8 bd
       0.24792227 -0.27655414 0.15893312 -0.0821535
0001d0 ab 61 76 bd 47 73 3a bd e5 a0 0c be 94 49 64 be
       -0.060151737 -0.045520093 -0.13733251 -0.22293693
0001e0 d4 81 48 be d6 bd 04 3e 61 20 1a be 54 eb 53 3c
       -0.19580775 0.12963042 -0.15051414 0.012934525
0001f0 77 5b 83 bb 83 24 83 3b b2 05 82 3e 3f fa 89 3e
       -0.004008706 0.0040021553 0.2539497 0.26948735
000200 43 75 36 3e b7 fe 4a 3e 56 3d 46 3c 44 5c aa 3c
       0.1781817 0.19823729 0.012099585 0.020795949
000210 55 69 97 bc 20 4a 06 3d 83 32 47 3e 97 88 4b be
       -0.018482843 0.032785535 0.19452862 -0.19876324
000220 90 ac 03 bd 4d d5 40 3e 43 e6 90 bd a7 fb cd bd
       -0.03214699 0.18831368 -0.07075169 -0.100577645
000230 a7 da 9f 3e 5f 76 23 be e1 b3 48 be ac 58 68 3a
       0.31221506 -0.15963124 -0.19599868 0.0008863311
000240 b1 a2 e8 bd 65 ca e3 bd 01 a0 f3 bd 80 63 1a 3e
       -0.11359156 -0.11122588 -0.11895753 0.15077019
000250 e3 de a4 bd d5 9f f3 3d 96 71 f1 3d 4f 8e 82 bd
       -0.08050325 0.1189572 0.11789243 -0.063747995
000260 d5 8b d6 bd b0 e5 f2 3d ad b8 6b 3d d1 f1 aa 3c
       -0.104758896 0.11860216 0.057549167 0.02086726
000270 2d a8 0f be 24 79 37 bc 3c e4 14 bd 07 1e 5c 3e
       -0.14028998 -0.011198316 -0.036350474 0.2149583
000280 c3 57 45 3d 82 ce 29 3d b9 31 5d be da cd cd bd
       0.0481794 0.041456707 -0.21600999 -0.10049029
000290 fd 5b 6d 3d 1c 78 fd bd 4f 30 19 be 47 ed 74 be
       0.057949055 -0.12376425 -0.14959835 -0.23918639
0002a0 2b 38 53 be f1 d5 de 3c c8 3a 14 3d 5c 0b 62 bd
       -0.20626895 0.027201625 0.03618887 -0.055186614
0002b0 26 53 44 be 58 fb 25 3e 79 8d 0d 3e 5f 53 1c 3e
       -0.19172344 0.16209161 0.13823499 0.15266179
0002c0 be 6b 08 be 75 c3 40 bd 88 e8 c0 bc dd 59 19 be
       -0.1332235 -0.047061402 -0.02354838 -0.14975686
0002d0 83 ff 58 bd ea aa 1c be 6b d4 24 3e 24 5a 6d bd
       -0.05297805 -0.15299574 0.16096656 -0.057947293
0002e0 df d3 7b be a2 40 21 be af 64 e3 3d f3 dc c5 bd
       -0.24592541 -0.15747312 0.11103188 -0.09661283
0002f0 69 59 0d 3e fa 5c 15 be 30 73 cd bd 76 e1 0d be
       0.13803639 -0.14586249 -0.10031736 -0.13855538
000300 10 83 20 3d 44 dd 23 3e 06 68 03 3e c8 4e 55 3e
       0.03918749 0.16002375 0.1283265 0.20830834
000310 1e d1 09 3e 49 8b b6 bd 9f 3d 23 be 5f 5b 32 be
       0.13458678 -0.08913285 -0.15941475 -0.17417668
000320 6a 1a 65 bd f9 8a 01 bd 6b cb 9c bd 6c a7 bc bd
       -0.055933394 -0.031626675 -0.076559864 -0.09211621
000330 14 22 ff bd 1c c6 24 3e d1 96 46 bb 60 99 ad bd
       -0.12457672 0.16091198 -0.0030302296 -0.084765196
000340 90 86 18 3d 12 7a 19 be c8 03 48 3e cb 6c 46 3e
       0.037237704 -0.14987972 0.19532692 0.19377439
000350 fc ee dd bb 89 16 40 3e 40 7e 4c be 79 06 cf 3b
       -0.006772874 0.18758596 -0.19970036 0.0063179103
000360 a2 ef 18 3e f0 48 6d be c3 ac e5 bd 8f 63 29 be
       0.14935163 -0.23172355 -0.11214592 -0.16541885
000370 f4 da fc bd 71 58 73 3e 0d ef 08 bd e6 d6 12 bb
       -0.123464495 0.23764206 -0.0334311 -0.0022405921
000380 a8 6b 7e bd 8e 91 95 bd e3 2b b8 3d ce 9c 31 be
       -0.062114388 -0.07303153 0.08992746 -0.17344972
000390 93 5d 96 3d f5 bd f5 3d e3 ca 01 be 49 c5 39 3c
       0.073420666 0.11999122 -0.12675051 0.01133854
0003a0 01 d3 5c 3e a1 46 36 3e 10 44 6e 3d 28 3b 44 3e
       0.21564867 0.1780038 0.05817038 0.19163191
0003b0 3d 32 f2 3d 32 40 31 be 20 2b 1e be 3c eb f6 3d
       0.118259884 -0.17309645 -0.15446138 0.12056586
0003c0 a5 8a 0e 3e e5 69 e4 3d 22 6a 49 3d cb c3 77 bd
       0.13920076 0.1115301 0.04917348 -0.060489457
0003d0 3e 1d 34 bd 47 36 02 3c 12 07 21 3e 41 72 38 bd
       -0.0439732 0.007947511 0.15725353 -0.045030836
0003e0 b7 f9 74 be 3c 91 a4 bd 29 56 a2 bd 68 45 a3 bd
       -0.23923384 -0.08035514 -0.0792659 -0.079722226
0003f0 98 cb 3c 3e 9b 6a a1 3d fa aa b8 3d 7b 6f d9 bd
       0.1843704 0.078816615 0.09016986 -0.10616966

imputation_module.generator.net.2.bias f4 [64]
000000 d4 12 8a 3d 72 ad 15 3d c7 71 c2 bc 78 34 11 3d
       0.067418724 0.036542363 -0.023735894 0.03545043
000010 f7 ae c9 3c a4 7a fc 3c 52 39 3f 37 6a 53 2e bd
       0.024619563 0.030820198 1.1397833e-05 -0.04256002
000020 94 32 98 3c c0 67 44 be 0d 5f 03 3d 45 98 dc bc
       0.018578805 -0.19180202 0.03207307 -0.026928077
000030 40 bf aa bd 39 4a 03 bd 14 f3 36 3c f7 3a d8 bc
       -0.08337259 -0.032053206 0.011166353 -0.026395304
000040 5b c1 ed 3c ef cc bb bd b4 fc 9a ba 60 25 e0 3c
       0.029022863 -0.09169947 -0.0011824579 0.027361572
000050 4f 8d 54 bd b0 d0 8c 3d 15 08 f5 3d 66 4b 12 3d
       -0.051892575 0.068757415 0.11964432 0.035716437
000060 1b e3 b2 3d 18 ee 79 bd 21 11 da bc f4 98 15 bc
       0.08734723 -0.06101808 -0.026619496 -0.009130705
000070 d0 42 c6 bc 96 93 19 3d e6 d1 76 bc 59 18 7c 3c
       -0.02420178 0.037494265 -0.015064692 0.015386664
000080 49 98 8e bc e8 48 12 3d 7a c6 73 3b 3f 91 8e bc
       -0.0174066 0.03571406 0.0037197159 -0.017403243
000090 e7 f7 19 3c b7 3a 9b 3c 57 99 d0 ba 9c a5 58 3d
       0.009397483 0.018948896 -0.001591484 0.052892312
0000a0 a2 8a 19 3c 7d 77 76 3d cb b4 e2 3b 86 d0 66 3d
       0.009371432 0.060172547 0.006918525 0.056351207
0000b0 03 3c ce 3c 94 fa af 3c ec 34 37 bd 45 ec fe bc
       0.0251751 0.02148179 -0.044728205 -0.031118521
0000c0 e5 0e 8c bc 38 7e ae 3c ab ff e5 3c dd 7b 76 3d
       -0.017096946 0.02130042 0.028076014 0.06017672
0000d0 e8 cf 60 3c 8b 2e 7d 3b 75 dc d1 3c 94 6e d7 3c
       0.013721444 0.0038632478 0.025617817 0.026297845
0000e0 3a ab 6b bc fa 87 40 bc 6d 52 85 bc 8b ce 8e bd
       -0.014384085 -0.011751169 -0.016274655 -0.06972989
0000f0 e6 30 22 bc c1 68 44 3d df b0 c2 3c 85 fe 0d bd
       -0.009899354 0.047951464 0.02376598 -0.034666557

imputation_module.generator.net.4.weight f4 [4, 64]
000000 ba 0f 07 bd 07 f6 58 be 6c 54 3b be 9c 25 8e be
       -0.032973982 -0.21187602 -0.18293923 -0.2776307
000010 32 73 d7 3d a7 8c 1f 3e cf d7 10 be 7b ff 48 3d
       0.10520019 0.15580998 -0.14144824 0.04907177
000020 bc db dd 3b 23 25 f5 be 44 e7 a0 3e 8f a5 e0 3d
       0.006770579 -0.47879896 0.31426442 0.10969078
000030 c0 cf 6c be 5e fa 3d be 31 54 2c 3d 28 77 d4 3c
       -0.23126125 -0.18552539 0.04207248 0.025935724
000040 f2 2f 8c be 4f d6 84 3e 1b a8 b4 3e 2e 7c c8 bd
       -0.2738033 0.25944754 0.35284504 -0.097893104
000050 95 22 b0 bd bb da 2e be ea f1 69 bd 99 4e aa be
       -0.08600346 -0.17075627 -0.057115473 -0.3326309
000060 01 83 ae bc d6 f3 85 3e e3 0e 6c be e7 7d 9b 3d
       -0.021302702 0.26162595 -0.23052554 0.07592373
000070 e8 fe 28 be be 56 a2 3d 4a 19 aa 3d 97 4d 09 be
       -0.16503489 0.07926701 0.08305605 -0.13408504
000080 0c d9 de 3d b5 71 0c be e5 ad 93 3d 2b 91 38 be
       0.10881242 -0.13715251 0.07210902 -0.18024127
000090 08 5c e0 bd 2d c3 00 3e 2d ac 31 3d e8 33 a2 be
       -0.109550536 0.12574454 0.04337709 -0.31680226
0000a0 f8 87 c5 bd 04 f3 a4 be 32 4d 8a bd 52 14 7b 3e
       -0.096450746 -0.32216656 -0.06753005 0.2451947
0000b0 9d b3 58 be cc 1d 76 be 06 0f a5 be d0 61 1f be
       -0.21162267 -0.24034804 -0.32238024 -0.15564656
0000c0 bd f0 25 be 39 b3 98 3e 1b bf cb bd 14 ec 90 be
       -0.16205116 0.29824236 -0.0994856 -0.28305113
0000d0 82 5d c1 3d 91 34 42 3e 75 e7 12 bd 7a cf 2f 3e
       0.09441663 0.18965365 -0.035865266 0.1716899
0000e0 18 c8 83 be f5 f1 64 bc f1 e8 3e be 4b 54 46 bf
       -0.25738597 -0.013973703 -0.18643548 -0.7747237
0000f0 8e 3b 81 3e fe c1 8a 3e aa 6a a2 3e 51 0f 59 3e
       0.2524075 0.2710113 0.31722003 0.21197249
000100 99 07 7b 3e 64 ea e8 bd 8f 76 1f 3e 06 c8 15 3e
       0.24514617 -0.113728315 0.1557257 0.14627084
000110 6c e3 31 3e 94 72 18 be 69 b1 5b be c3 e3 f0 bd
       0.17371911 -0.14887458 -0.21454395 -0.11762192
000120 94 cb 6d be 1f a8 f0 3e ae 90 30 3d 05 07 30 be
       -0.2322219 0.47003266 0.043106727 -0.17190178
000130 43 03 00 bf b5 67 26 bd 1b 01 97 3d 95 15 8d be
       -0.50004977 -0.040626246 0.07373258 -0.27555528
000140 cd 30 17 be a4 3e 8f 3d 00 14 50 3e 41 33 08 3e
       -0.1476471 0.069943696 0.2032013 0.13300802
000150 c3 8d 1d bf 6d 35 59 3e 2e 36 49 3e 43 10 4c be
       -0.61544436 0.21211787 0.19649574 -0.19928078
000160 81 41 94 be 6a 09 b1 3d 1e 9e cb 3e 3b da a6 3b
       -0.28956226 0.08644374 0.3976907 0.005091933
000170 1d 76 97 be 48 04 72 be 4f 3c ad be 09 78 89 be
       -0.295823 -0.23634446 -0.33835074 -0.26849392
000180 6b f0 80 3e ed ba 1d 3e 96 6b 5e 3e 3a ab 5c bd
       0.25183424 0.15403338 0.21720728 -0.053874232
000190 92 03 9b be c5 1d bb bd f9 9e fe bc 3b 0d a4 3e
       -0.3027616 -0.091365375 -0.031081663 0.32041344
0001a0 e9 7c 8b 3e 81 8d 77 3d 76 cb a6 3d 53 db a5 3e
       0.27243736 0.060437683 0.08144276 0.32393894
0001b0 b7 43 61 3c e0 b3 40 bd d7 a1 cf 3d 85 45 b5 3e
       0.013749055 -0.047046542 0.101382904 0.35404602
0001c0 e4 2b 6f 3e bd 8c e7 3d fe 4b 84 be 9c 59 1a 3e
       0.23356587 0.113061406 -0.25839227 0.15073246
0001d0 ef 49 b2 bc 3e 35 a8 3d 2c b0 12 be f6 a1 04 3e
       -0.02176377 0.0821328 -0.14325017 0.12952408
0001e0 32 3e 4d bd 41 b9 77 be d7 1f 67 be 53 a8 94 3d
       -0.050108142 -0.24191763 -0.2257074 0.07258668
0001f0 d8 06 66 3e e3 e0 94 be 61 d9 62 be 04 78 18 3e
       0.22463548 -0.29077825 -0.22153236 0.14889532
000200 26 88 20 3e 93 60 e9 bd 72 54 ba 3d 79 d2 61 3e
       0.15676937 -0.11395373 0.09098138 0.22052945
000210 3c a9 78 bc b5 8b 84 be 84 0e 18 be 23 33 58 3e
       -0.015177067 -0.25887838 -0.14849287 0.21113257
000220 59 00 e0 bd 83 6f e4 3e 19 be 95 bd 72 b8 85 3e
       -0.10937566 0.44616327 -0.07311649 0.26117283
000230 7b 30 11 be d9 6c ff 3d 07 d8 54 be c5 db 70 3e
       -0.1417865 0.12471933 -0.20785533 0.23521335
000240 fc 02 78 be 58 cf 18 3e e9 6c 3a 3e 74 7d f7 bd
       -0.24219888 0.14922845 0.18205608 -0.12084475
000250 c2 7a 58 3d 41 aa 12 be b6 58 31 3f 86 59 cb 3c
       0.052851446 -0.14322759 0.6927599 0.024822962
000260 39 4a ea 3e 95 5c 6f be 73 7f 38 be 24 f4 91 3e
       0.45759752 -0.23375161 -0.18017368 0.28506577
000270 b9 95 37 3e c7 05 45 bc fd 65 40 3e 40 b8 e0 3d
       0.17928208 -0.012025303 0.18788905 0.10972643
000280 31 28 8d 3e e8 1d 46 be 2a ee 43 3e 58 45 84 3e
       0.27569726 -0.19347346 0.19133821 0.25834155
000290 a9 55 87 3d bd 28 5a be b8 71 92 3e d8 cc 6b 3e
       0.06608135 -0.21304603 0.28602386 0.2302736
0002a0 74 b0 58 3e a8 9b 2a 3e 6a 62 0e 3e e9 ed 82 3d
       0.21161062 0.1666094 0.1390473 0.06393034
0002b0 87 0c 9a be 6b 4d 20 be 28 02 2c 3d e6 8f 62 be
       -0.30087683 -0.15654533 0.041994244 -0.22125205
0002c0 ec 86 92 3e 2f 0f 04 be 3f ed 0c be fb 6e 9f 3d
       0.28618562 -0.12896417 -0.13762377 0.0778484
0002d0 8c 26 31 be eb 12 95 be ca 34 8e be b4 62 9d be
       -0.1729986 -0.29115996 -0.2777465 -0.30739367
0002e0 87 aa 12 be 97 6b 2d 3e 83 13 84 3e 8c ca b5 bb
       -0.14322864 0.16935574 0.25796136 -0.005547827
0002f0 0e b4 1e 3e 19 6b 84 bd 21 57 ba 3c 4b 4b 57 3e
       0.15498373 -0.0646574 0.022746624 0.21024816
000300 1c 04 68 3d 26 78 97 3c 9d a9 95 3e 9d 24 87 3c
       0.056644544 0.018489908 0.29230967 0.01649695
000310 11 bf b1 be fd 2d 21 3e 47 28 65 3e f1 28 9e be
       -0.34716085 0.157402 0.22378646 -0.3089061
000320 c1 82 73 3e 5b e9 ad bc f1 ac 19 be 7e ec 06 be
       0.23780347 -0.021229437 -0.15007378 -0.13176152
000330 26 ca a8 bd 0d 1e 91 3e e1 ce a4 3e a7 f8 d2 3d
       -0.08241682 0.2834324 0.32189086 0.10301333
000340 2f 0b c1 3e 00 a2 1e 3e 20 9a 1a ba c4 af 37 be
       0.37703845 0.15491486 -0.00058976 -0.17938143
000350 6c 3d 01 3d 84 06 bd bc 49 c5 05 bd fa 93 1c bc
       0.031552717 -0.023074396 -0.03265885 -0.009556765
000360 1e 3f 88 3d 72 9c 8a be 76 31 4e be e4 73 98 3e
       0.06652664 -0.27072483 -0.20136055 0.29775918
000370 83 b8 98 be 95 11 6d bd 6a c9 88 3d 2b 8f 28 be
       -0.2982827 -0.057878096 0.06679042 -0.16460864
000380 2c a1 b2 bd c1 9f d9 3d 24 c9 b3 3e cf 50 8c be
       -0.08722147 0.10626174 0.35114396 -0.27405402
000390 49 be 01 3e 6e 34 8e be 06 c9 63 be 9d 4f fd 3d
       0.12670244 -0.27774376 -0.22244653 0.12368701
0003a0 76 46 8d 3d dd f0 ff 3e c4 7f 72 3e 94 87 7c 3e
       0.06898205 0.49988452 0.23681551 0.24661094
0003b0 91 96 8d be a7 e6 87 3d ec 9d a2 be c5 c3 2a be
       -0.27653936 0.0663579 -0.3176111 -0.16676243
0003c0 da 2f 8b be 88 9a 91 3e ea 5f 80 3e 96 fc 77 3e
       -0.27184945 0.2843821 0.25073177 0.24217448
0003d0 b9 7d 42 be 7d 3e a3 3e d4 c6 8c be 8b 44 2f be
       -0.18993272 0.31883612 -0.27495444 -0.17115991
0003e0 c2 b8 18 3e 63 59 b0 be 4d 89 96 bd 7f 48 1c 3e
       0.1491423 -0.34443197 -0.07350407 0.1526203
0003f0 b6 47 5c 3a 2b 43 46 3e 2a 0d 87 3c 39 24 c2 bc
       0.000840302 0.1936156 0.01648577 -0.023698913

imputation_module.generator.net.4.bias f4 [4]
000000 4c 69 e0 bc a1 51 31 3a e5 2a a4 bc 10 80 09 3c
       -0.02739396 0.0006764178 -0.020039985 0.008392349

imputation_module.discriminator.net.0.weight f4 [64, 8]
000000 78 92 6c 3e d2 f3 c2 3c 30 ca 00 bd f0 47 76 3d
       0.23102748 0.023797903 -0.03144282 0.0601272
000010 92 7d 12 3d 18 e7 83 3e a0 a5 ca 3e 22 79 17 3e
       0.035764284 0.25762248 0.39579487 0.14792302
000020 e8 04 7f be 7e c5 50 3e d3 5e ec bd 4f e1 a4 3c
       -0.24904215 0.20387837 -0.11541524 0.020126967
000030 a4 bd 8d 3e 59 54 ee 3d d3 60 14 3e 9b bc c1 3e
       0.27683747 0.11637182 0.1449006 0.37839207
000040 bd 95 e6 3b e7 a0 2a 3e 53 0d ad be 9f 5e d2 bd
       0.007036893 0.16662942 -0.33799228 -0.10271954
000050 eb c8 c3 bd cd 1a 6f 3e c5 55 b3 3e a6 07 a6 3e
       -0.095598064 0.23350067 0.35026374 0.3242771
000060 a7 6c d8 3d 6e 42 5e 3c 4a c0 bf 3d 8f 1c 6c 3c
       0.10567599 0.013565643 0.09362848 0.014411106
000070 f0 5d f4 3c 7e 29 0e 3e b4 12 d1 3d 40 77 28 be
       0.02982995 0.13883016 0.102086455 -0.1645174
000080 c0 ff 0a 3e 20 45 55 be 9b 5a e9 3d e2 76 2b be
       0.13574123 -0.2082715 0.11394235 -0.16744569
000090 c6 19 84 bd 02 03 9a 3e 00 33 60 3e 21 5d 13 3e
       -0.064502284 0.3008042 0.21894455 0.14390995
0000a0 1f 2e c0 3c 11 84 58 bd 64 bb 81 bd 90 a2 a1 3d
       0.023459492 -0.052860323 -0.0633457 0.078923345
0000b0 f3 cf 9e be 9a 12 1a be b9 44 d4 3e b8 58 88 bd
       -0.31018028 -0.15046158 0.4145868 -0.06657547
0000c0 3d 5c 22 be 79 86 7e 3e 3a 16 a1 3e 9c 20 76 be
       -0.15855499 0.24855985 0.3146227 -0.24035877
0000d0 7e 87 ae 3d 6b 41 2d be b3 70 b3 3e 47 85 40 3e
       0.08521937 -0.16919486 0.3504692 0.18800841
0000e0 f5 40 e9 3e 54 35 76 3d 9b 5a 77 bc 10 39 dd 3e
       0.4555737 0.06010945 -0.015097286 0.43207598
0000f0 b3 c6 b8 bb 9f 1a 01 bd fa 74 8e 3e a6 08 77 3d
       -0.005638921 -0.03151953 0.2782362 0.060310982
000100 93 b5 34 3d fe d8 96 3c 89 7d 43 3d f1 e1 a5 3e
       0.044118475 0.018414017 0.04772714 0.32398942
000110 a0 91 17 3e 30 1c 3d be 81 9f 25 be bb 6a ec bd
       0.14801645 -0.18467784 -0.16174127 -0.11543795
000120 01 64 f8 3d 27 ed 8d bd c6 22 be be 10 fd a4 be
       0.12128449 -0.06929999 -0.37135905 -0.3222432
000130 cd fc 8e 3e 69 a4 1a be 16 6e 33 3e 12 48 0a 3e
       0.27927247 -0.1510178 0.17522463 0.13504055
000140 d8 1e 30 be 25 45 a9 be 96 22 3b 3d 07 79 02 be
       -0.17199266 -0.33060566 0.04568728 -0.12741481
000150 ec 39 5e 3e 0d 78 a7 3e 4c d5 84 3d e0 5d e9 3d
       0.21701783 0.3270878 0.06485996 0.11394858
000160 18 6b d7 3c 7b 36 9b be 8c b6 a7 3b d6 48 22 3d
       0.026296183 -0.30315003 0.005118197 0.039620243
000170 77 af db 3e 0b b1 8d 3d 20 30 a9 3d 7d 0f 86 3e
       0.42907307 0.06918534 0.08261132 0.26183692
000180 b6 d1 02 be f1 0e 06 3d 8b c0 cb be d5 16 9f bd
       -0.12775311 0.032729093 -0.39795336 -0.07768027
000190 9c 98 73 be 8f 56 de bd a1 39 5a 3e 32 00 a9 be
       -0.23788685 -0.108563535 0.21311046 -0.33007962
0001a0 02 41 32 3e 2f 40 ac be fe bb 65 3e 52 ac 4a 3d
       0.17407611 -0.33642718 0.22434995 0.049480744
0001b0 8a e2 cf bd f1 9c 80 bd 3f d6 e7 3c 79 bc f9 bd
       -0.10150631 -0.06279934 0.028300403 -0.121941514
0001c0 aa ff a6 bd d8 1a 12 3b 21 2e 82 3e 2b 20 d2 bc
       -0.08154233 0.0022293832 0.2542582 -0.025650105
0001d0 9a da 31 be 77 f7 a6 bc 64 15 20 be f8 44 97 3e
       -0.17368546 -0.020381672 -0.1563316 0.29544806
0001e0 e4 9d 54 3c 3b ea 1c 3e 15 64 86 bd bb ed d6 bd
       0.012977097 0.15323727 -0.06562058 -0.10494562
0001f0 e4 62 93 bd c0 61 89 3e d8 00 80 3d 5f b6 f5 bd
       -0.07196596 0.2683239 0.06250161 -0.11997675
000200 bb bf 66 3e 1f 0b 03 3e 23 ad 1b be 9b c2 40 be
       0.22534077 0.12797211 -0.15202765 -0.18824236
000210 5d 25 89 3e 27 a2 0a 3e de 4d 56 3e 4e ad 02 3e
       0.26786318 0.13538419 0.20928141 0.12761423
000220 e1 27 37 be ec 59 7c 3b 84 d1 7a be 90 04 9d 3d
       -0.17886306 0.0038505746 -0.24493986 0.07666886
000230 df e4 5b 3e fe 63 20 be 4f 0c 6f be ea f5 99 3e
       0.21474026 -0.15663144 -0.23344539 0.3007043
000240 99 84 30 bd 03 23 8a be 2f 69 f5 bc ae 45 00 bd
       -0.043095205 -0.26979837 -0.029957382 -0.03131645
000250 39 0f 15 3d 03 a8 90 bb e6 91 70 bd 62 9d ac be
       0.03639147 -0.00441456 -0.05873289 -0.33713824
000260 37 bd c1 bd a4 d5 6e 3b 3f c8 80 3e 16 72 b7 3e
       -0.09459918 0.0036443258 0.25152776 0.35829228
000270 0d 94 c2 3e eb eb 38 be 8e f6 04 bd 6d 95 ef 3d
       0.3800358 -0.18058746 -0.032461695 0.116984226
000280 30 e5 74 bd 89 68 e7 bc 9d 61 9a bd 5e eb 3e bc
       -0.059788883 -0.028248088 -0.075381495 -0.011652796
000290 c9 2d c2 3e 38 b0 9d be e5 ba 9e 3d 46 a1 7c be
       0.37925556 -0.30798507 0.07750491 -0.24670896
0002a0 a3 de a9 bd bd 98 bb 3d 40 65 5d bc b7 cf 35 be
       -0.08294418 0.09159992 -0.013512909 -0.17755018
0002b0 ae f7 03 be 93 c3 dd bd cd 1b c0 bd e1 16 d3 3e
       -0.12887451 -0.108283184 -0.093803026 0.41228393
0002c0 28 00 81 be d1 1e 63 3e af 0b cf bd 5c 4a db bd
       -0.25195432 0.22179724 -0.1010965 -0.10707542
0002d0 1c e8 a8 bc e9 1b b4 3e f1 70 71 3e 11 49 a7 3e
       -0.02061849 0.35177544 0.2357824 0.32672933
0002e0 f4 9f 3e be 59 cb 9f 3e 27 3f 2c be 1e 63 00 3e
       -0.18615705 0.3120983 -0.16820966 0.1253781
0002f0 02 b4 88 3e 92 88 41 bd f9 40 94 3e d3 2a d0 3d
       0.26699835 -0.047249384 0.2895582 0.10164418
000300 1c 55 c1 be db 2c bb 3d 75 59 87 be b8 15 aa be
       -0.37760246 0.09139415 -0.26435438 -0.33219695
000310 df 4e 82 3e c6 44 02 be ac 0c 74 bd ed 72 92 3e
       0.254508 -0.12721547 -0.059582397 0.28603306
000320 e9 b7 67 3d 55 17 6e bd 01 7a 01 be 82 c2 2d 3d
       0.056571875 -0.05812772 -0.12644197 0.042421825
000330 e3 26 0a 3e 69 f8 ad 3e cc 48 a6 be b6 81 10 bd
       0.13491397 0.33978584 -0.32477415 -0.035279952
000340 5d 6d 28 3c 2d 3b 37 be e6 0f 89 bd c6 ac b8 3c
       0.0102799805 -0.17893668 -0.066924855 0.022543322
000350 65 57 c0 3d b0 e9 f7 3d ab c5 b6 3e 47 d2 8f 3e
       0.09391669 0.12105119 0.35697684 0.28090116
000360 6c 3f c3 bd 5e cd 22 bd 41 72 0d 3e c9 39 20 bd
       -0.09533581 -0.039746635 0.13813116 -0.03911761
000370 b3 99 dc 3e 31 e1 63 be bb 6c 88 be 8f 80 a3 bc
       0.43086013 -0.22253872 -0.26645455 -0.019958762
000380 d8 12 47 3d 9b e4 44 3e 98 2c a1 3e 03 6e 76 3e
       0.048601955 0.19227831 0.31479335 0.24065404
000390 15 01 fd bd c3 65 53 3e 92 63 7a 3e 94 f8 4f bd
       -0.12353722 0.20644288 0.24452046 -0.050774172
0003a0 88 48 dc bd b1 a4 ca be 6c d0 36 3d bc 97 bb bd
       -0.10756022 -0.39578775 0.04463236 -0.091598004
0003b0 c4 67 16 3d ef 92 7f 3e 2d 27 e0 3e a3 db af bd
       0.036720052 0.24958394 0.4377989 -0.08586814
0003c0 af 8e a3 be 0b f8 9a 3e ed ea 82 bc 75 ea 26 bc
       -0.31944796 0.30267367 -0.015981162 -0.010187735
0003d0 fa 94 5b 3e 31 8c c2 3e 76 b3 48 be 75 04 f8 bd
       0.21443549 0.37997583 -0.19599709 -0.12110225
0003e0 83 38 3d be 76 cb 55 bd fc 00 a4 3b 2f 46 97 bd
       -0.18478589 -0.05219599 0.005005 -0.07386433
0003f0 e6 3f 3a 3e 89 31 ac 3e 04 3f c0 3e a9 61 cf 3d
       0.18188438 0.33631542 0.37548077 0.10126049

imputation_module.discriminator.net.0.bias f4 [64]
000000 b3 0c 43 be ab 38 4b be 63 57 2f be d9 82 76 3e
       -0.19047813 -0.19845836 -0.17123179 0.24073352
000010 26 2c 0c be a1 20 5d 3e d1 b5 ab bd b3 81 9d bd
       -0.13688716 0.21594478 -0.08384288 -0.07690754
000020 a2 87 32 3e f3 7c eb bb e0 b4 ff bd 7a db 17 be
       0.17434552 -0.007186526 -0.12485671 -0.14829817
000030 de 55 35 3e 66 5b 34 3e 1d 94 83 3e ba 76 6d 3e
       0.17708537 0.1761299 0.2569894 0.23189822
000040 ab b4 c2 bd 70 fb 5f 3e 76 ee 40 3e ff 8e e8 3c
       -0.09507116 0.2187326 0.18840966 0.028388498
000050 4e 0c 59 3e 85 d8 75 3e eb 37 19 3e 11 ec 47 bd
       0.211961 0.24008377 0.14962737 -0.048809115
000060 75 98 e2 3c e4 48 80 3e 4d 5c 0d 3e 36 88 71 3e
       0.027660588 0.2505561 0.13804741 0.23587117
000070 df eb 28 be ad 26 46 3c ba 57 cf 3d 50 66 43 be
       -0.16496228 0.012094182 0.101241544 -0.19081998
000080 81 62 36 be 8a 78 8f 3e 64 71 64 be e4 e1 86 bd
       -0.17811014 0.28021652 -0.2230888 -0.06586054
000090 0f 0a 34 be b8 e9 6d 3e a0 b7 53 be c2 5d 3a 3e
       -0.17581962 0.23233688 -0.20675516 0.18199828
0000a0 50 a5 fe bc f6 60 33 be 74 36 2b be 6b cc 5e 3e
       -0.031084687 -0.17517456 -0.16719991 0.21757667
0000b0 47 85 33 3e d5 d1 84 3e 24 e7 f9 3d c1 ee db bd
       0.1753131 0.2594134 0.1220229 -0.10738898
0000c0 b8 33 2a be 81 f1 b1 bd 82 a0 47 be 74 86 41 3e
       -0.16621292 -0.08688641 -0.19494823 0.18898946
0000d0 82 bb e5 3d 6c 03 15 be 42 a1 3e 3e d6 d0 4f 3e
       0.11217405 -0.14552087 0.18616202 0.20294508
0000e0 db f1 7a 3d dc 26 52 be 38 1a 6c 3e e8 92 3a be
       0.061265808 -0.20522636 0.23056877 -0.18220103
0000f0 43 28 51 be c5 4d 32 be ff b5 4e 3e 2a 38 58 3e
       -0.20425515 -0.17412479 0.20186614 0.21115175

imputation_module.discriminator.net.2.weight f4 [64, 64]
000000 6a 3b 49 3e cd 5e b7 3d 3f d5 e7 3d e3 6b c0 be
       0.19651571 0.08953629 0.1131997 -0.3758231
000010 63 78 9a 3e 57 af 88 be 31 01 5b 3e a4 2f 8c 3d
       0.30169973 -0.26696274 0.21387173 0.06845024
000020 8f eb 27 bd 60 74 91 3d 63 5a 71 3d bf ec 3a 3e
       -0.04099613 0.07102275 0.05892409 0.18254374
000030 f4 c4 cd bd 40 60 18 bd 73 29 2c be 09 c4 a3 3d
       -0.100473315 -0.037201166 -0.16812687 0.07996375
000040 b1 41 a1 3d 3e 34 80 be ab f0 50 be 07 78 86 bd
       0.07873858 -0.25039858 -0.20404308 -0.06565862
000050 ed 21 a3 be 5f db b3 be 8d 77 24 3e 0d 3c ad 3d
       -0.3186182 -0.35128304 0.1606123 0.084587194
000060 03 b8 0f be 3c 01 4a be 2f 1a 90 3e 56 28 51 3d
       -0.14035039 -0.19727033 0.28144976 0.051063858
000070 3e 33 bf 3d 8b 5a bd 3e 53 28 3d 3e 4f 18 b7 3d
       0.093359455 0.3698314 0.18472414 0.08940183
000080 75 b4 69 3e ff d0 a2 bb ec 73 a9 3e 82 21 2b 3e
       0.22822745 -0.004968762 0.33096254 0.16712001
000090 01 6e 4d bd c9 72 03 be b9 60 f9 bc 19 c2 18 3d
       -0.050153736 -0.12836756 -0.030441629 0.03729448
0000a0 13 e9 a8 3d 42 08 47 3b e4 7f 95 3e cd 87 0e 3c
       0.082475804 0.0030369912 0.29199135 0.00869937
0000b0 00 f2 38 bd a0 da 46 be 3c 8c f2 bd b3 0e 66 3e
       -0.045152664 -0.19419336 -0.11843154 0.22466545
0000c0 33 73 50 3d 11 c4 3d 3e d1 57 13 3e 0a 94 d8 bc
       0.050891113 0.18531825 0.14388968 -0.026437778
0000d0 43 90 1c 3e ae 9a d5 3d 94 8d e2 bd bc 7a 88 3d
       0.15289406 0.104298934 -0.1106216 0.06664035
0000e0 e3 23 a7 3d e8 56 f6 3d e8 5a 0b be b0 58 44 3d
       0.08161142 0.12028295 -0.13608897 0.04793614
0000f0 af 74 e4 3d aa d5 32 3d 16 7a 79 be af d4 87 3d
       0.11155068 0.043660797 -0.24362978 0.06632363
000100 8f ef 6c be 48 9f 4c 3c a2 43 34 3d 23 f8 4f 3d
       -0.2313826 0.0124891475 0.044009812 0.05077375
000110 2d 5b 2a be a1 06 94 3e 07 b2 db bd f6 cb cb 3d
       -0.16636343 0.28911307 -0.107273154 0.09951012
000120 52 b4 c2 3e 3f 89 94 3d b5 20 5c be 55 58 89 be
       0.38028198 0.0725274 -0.21496852 -0.26825204
000130 f4 8b 8b 3e b4 ed a5 3d ae aa a7 3e 29 18 77 3e
       0.27255213 0.08101979 0.32747406 0.2413031
000140 cc ad 03 be fe 10 02 3e 33 e9 5f 3e a5 55 08 3e
       -0.12859267 0.12701795 0.21866302 0.13313921
000150 e3 f4 c5 3e 5a d8 7c 3e 12 a5 52 3e 00 1b 01 3c
       0.38663396 0.24691907 0.20570782 0.007879972
000160 42 12 5c bd e2 16 f3 3d 27 82 3c 3e 7f fa 82 3e
       -0.05372835 0.11869599 0.18409024 0.25581738
000170 e7 d1 72 be 57 fc 53 3e 37 f5 62 3d bb 46 b2 3b
       -0.23712884 0.20701729 0.055409636 0.0054405606
000180 ae a2 01 3e 22 53 ed 3e cb ba e0 bd 59 89 61 bd
       0.12659714 0.46352488 -0.10973128 -0.055062626
000190 84 ef 79 be 32 37 aa 3e 16 2b 00 be 91 d4 82 3e
       -0.24407774 0.33245236 -0.12516436 0.255528
0001a0 e7 92 bc bd e1 17 b3 be b9 fb 82 bd a5 5e 88 bd
       -0.09207707 -0.34979156 -0.063956685 -0.06658677
0001b0 57 ee 4a 3e f0 3c 66 3e 9c 46 ff bd 86 22 af 3d
       0.19817482 0.22484183 -0.124646395 0.08551507
0001c0 81 49 5e bd a0 77 88 bd 40 01 84 bd 8b 31 90 3e
       -0.054269318 -0.06663442 -0.06445551 0.28162798
0001d0 29 e8 62 3e 53 4c 1e bd de 1f 4d 3e fa d0 39 3e
       0.22158875 -0.038647007 0.20031688 0.18146124
0001e0 af c9 6d 3e b1 cc 9b be 91 25 85 3d 2a d8 2a be
       0.23221467 -0.30429605 0.06501306 -0.16684023
0001f0 9c e8 c8 3d 14 24 d0 3c 15 b3 40 3d 0f 0c 80 bd
       0.09809992 0.025407828 0.047045786 -0.062523
000200 fc 3b ff 3d e0 20 91 3d c0 c5 4e 3e 04 a6 63 be
       0.12462613 0.070863485 0.20192623 -0.22231299
000210 3f e8 0a 3e 2a 5a d8 be 14 76 d3 3d bc 1b ef 3d
       0.13565157 -0.4225629 0.10325256 0.11675212
000220 db b7 b8 be 33 f1 f3 3d aa 4e c1 3e d9 5d 06 3e
       -0.3607777 0.119112395 0.37755328 0.13121738
000230 25 72 e5 3d 63 c5 93 bd 54 76 38 bc ad 55 dc bd
       0.11203412 -0.07215383 -0.01125868 -0.10758529
000240 91 d8 88 bc b8 62 c3 be f4 fc 51 be 51 86 48 3e
       -0.01670483 -0.38161254 -0.2050665 0.19582488
000250 85 cc f1 3c 15 8e 69 be 76 f8 3b 3e 1f cb 9c 3e
       0.029516468 -0.22808106 0.18356499 0.3062372
000260 47 e6 47 3e 88 22 91 be e4 f1 bb 3d 92 1a 2a bd
       0.19521438 -0.28346658 0.09176996 -0.041529246
000270 3a 56 53 3e b3 7a c0 3e 12 11 fe 3d 16 3a 45 3d
       0.20638362 0.37593612 0.124056 0.0481511
000280 12 74 46 3d 1f 65 20 be f8 b6 92 3e a9 71 61 3e
       0.048450537 -0.15663575 0.2865522 0.22016014
000290 c2 20 0c 3d c1 7f 80 be f5 ca 96 3e 19 74 be bd
       0.034210928 -0.25097468 0.2945172 -0.092994876
0002a0 3c bb 9e 3c 53 08 c6 3c bd dc 94 3e 1c 90 75 3e
       0.01937639 0.024173891 0.2907466 0.23980755
0002b0 76 c8 52 be 0b 3f c7 bd 15 af 64 3d 7e 48 4b 3e
       -0.20584282 -0.09728821 0.055831034 0.19851872
0002c0 70 bb 96 3e e7 f5 a7 3e dd 9f d6 3e 27 3d 53 be
       0.29439878 0.32804796 0.4191884 -0.20628797
0002d0 4c 69 76 bd 52 06 8a 3e cb 2d 13 be fd 6e 20 3e
       -0.060159013 0.26957947 -0.14372937 0.15667339
0002e0 a8 7a 4c 3c e6 13 45 3d 04 71 7c be b5 e6 d3 3c
       0.012480415 0.04811468 -0.24652487 0.025866846
0002f0 f1 2e bb 3e e6 be 25 3e fd bc a1 be 16 93 e9 be
       0.3655925 0.16186103 -0.315895 -0.4562003
000300 ee 80 25 3e d3 f2 9f 3d 59 33 86 be 5e d9 b8 3e
       0.16162464 0.07809987 -0.2621105 0.36103338
000310 2d 78 08 3e 58 25 e5 3b 09 ef c3 be 15 99 89 3d
       0.13327093 0.006992977 -0.38268307 0.06718651
000320 a7 95 80 3e 56 ea ea 3d 44 4a a3 3e 85 16 06 bc
       0.25114176 0.11470477 0.31892598 -0.00818408
000330 e1 5d 76 3e 5d 52 ab 3c 16 2d df be 37 e8 14 3d
       0.2405925 0.020913297 -0.43589085 0.03635427
000340 90 3b a1 3d 07 b5 08 3e c1 47 c8 3d 5d 30 89 3b
       0.07872689 0.13350306 0.09779311 0.0041866736
000350 6e 91 ef 3d 6a 0f e7 be fe 8f 42 bd 70 21 09 be
       0.116976604 -0.45128947 -0.047500603 -0.13391662
000360 7b 3b 46 3d d2 e1 28 3e bb 83 df bb 1d 30 27 be
       0.04839657 0.16492394 -0.0068211234 -0.16326948
000370 62 f2 02 3d 2b be 9e 3d 0d b3 b2 3e 84 0f 9f 3e
       0.031969436 0.077511154 0.3490223 0.31066525
000380 fb 64 5f be c2 77 61 bd 7a 0f fa bd 60 77 16 bb
       -0.21815865 -0.05504585 -0.12209983 -0.0022959337
000390 2d 28 96 3e bb eb 11 be 39 31 04 3f 05 17 35 3e
       0.29327527 -0.1425008 0.5163761 0.17684563
0003a0 30 4e 15 3e 87 db d8 3d 02 08 b5 3d 90 a9 ed bd
       0.14580607 0.105887465 0.08839418 -0.11604607
0003b0 0c 34 ec 3d 2f cc de 3e 07 05 8a 3c 2a 53 90 bd
       0.11533365 0.43515155 0.0168481 -0.07047112
0003c0 c8 a4 37 be 0d 0a 9a 3e c4 df 79 bb ef 31 3e 3e
       -0.17933953 0.30085793 -0.003812776 0.18573736
0003d0 5b 13 4b 3d f2 66 1a 3e fb 32 a9 bd 79 02 1c 3e
       0.049579006 0.15078333 -0.08261677 0.15235318
0003e0 d4 29 f9 bd 50 d3 b1 bd 5b bb c8 be 21 f6 08 bd
       -0.12166181 -0.08682883 -0.3920544 -0.03343785
0003f0 93 ea 8f be fa aa d8 bd 52 9a 94 bd ea 59 ba 3d
       -0.28108653 -0.10579486 -0.07255997 0.09099181

imputation_module.discriminator.net.2.bias f4 [64]
000000 02 d0 d6 bd 59 cc 1f 3e 64 12 44 be 41 2b fb bc
       -0.10488893 0.15605296 -0.1914764 -0.030660274
000010 2d eb 14 3e c4 00 9f 3e d8 49 2a 3e 45 8b ea bd
       0.14542837 0.31055272 0.16629732 -0.11452345
000020 0a c1 3e 3e 6f 80 cb bd f5 e4 40 3e 7b ce 0b 3e
       0.18628326 -0.09936606 0.1883734 0.13652985
000030 24 d4 05 be bd b7 2c 3e 26 ab ec bd 94 16 02 be
       -0.13069206 0.16866966 -0.115560815 -0.12703925
000040 9d 89 ff bd 0e 86 02 be d3 ab 2c 3e 38 e3 7b bd
       -0.124774195 -0.1274645 0.1686242 -0.06149599
000050 1d f6 bf bd 07 19 20 3e 05 d3 fd bd 41 3d e6 bd
       -0.09373114 0.15634547 -0.123937644 -0.11242152
000060 0e c3 0c be a0 51 3d 3e f0 f8 db bd da 7c 05 3e
       -0.13746282 0.18488169 -0.107408404 0.13035908
000070 18 b8 2f be 5d 55 ea bd 73 52 6f bd 2a ea 13 3e
       -0.1716007 -0.11442063 -0.05842824 0.14444795
000080 bd 45 08 be 05 9c f2 bd 01 b4 be bd ad 42 09 be
       -0.13307853 -0.118461646 -0.09311677 -0.13404341
000090 cb f4 fb bd 45 de 24 3e e6 5a e9 bd ee 0a 1e 3e
       -0.1230255 0.16100414 -0.113942906 0.15433857
0000a0 95 80 a7 bd 74 8a 40 be 06 3b 17 3e f6 09 08 3e
       -0.08178822 -0.18802816 0.1476861 0.1328505
0000b0 aa 5c e4 bd 41 b0 11 3e ac 29 c4 bd a9 91 28 3e
       -0.11150487 0.14227392 -0.09578261 0.16461815
0000c0 3e d6 8e bc 43 96 2d 3e 08 76 cd bd 60 41 19 be
       -0.017436143 0.16951852 -0.10032278 -0.14966345
0000d0 dc 8b 03 be 08 be 13 3e 21 4d 1a 3e 6f 4f e5 bd
       -0.12846321 0.1442796 0.15068485 -0.111967914
0000e0 da c1 3e 3e 0a 7e 02 be 6a cc 20 3e 9d a7 df bd
       0.18628636 -0.12743393 0.15702978 -0.109206416
0000f0 89 b7 17 3e 17 2c dd bd 79 0f 3b 3e ee 15 28 3e
       0.14816107 -0.10799425 0.18267621 0.16414616

imputation_module.discriminator.net.4.weight f4 [4, 64]
000000 0a d1 10 3e 45 f8 a4 be eb 2d a1 3e 7f e9 b8 3d
       0.14142242 -0.32220665 0.31480345 0.09028911
000010 4f 87 d7 be ac 56 1d be e4 d4 9a bd 25 61 c4 3e
       -0.4209542 -0.15365094 -0.07560137 0.38355365
000020 be f4 96 bd 96 c2 80 3e 0e 0d b6 be 2a 89 ec be
       -0.073708996 0.25148457 -0.35556835 -0.46198398
000030 27 48 78 3d 65 71 4f be 0b f1 c4 3e 71 e9 9a 3e
       0.060615685 -0.202581 0.3846515 0.30256227
000040 3f 9f b0 3e 9c b9 67 3e 7c 6f ce be 4e fc 81 be
       0.34496495 0.22629398 -0.4031943 -0.25387806
000050 88 4a e2 3e 17 ec b5 3b 2e c5 0e 3e ff 3f 8b 3e
       0.44197488 0.0055518257 0.13942406 0.27197263
000060 e9 ae 96 3e ce 89 dd bd 1e 0a 1f 3d a7 72 e2 be
       0.2943032 -0.108173 0.038828008 -0.44228098
000070 f8 3a 1b 3d bc dd bf bd 6f b7 a8 3e b6 ff 86 be
       0.037898034 -0.09368464 0.3295245 -0.26366967
000080 15 5f c7 3e b4 e7 36 3e 87 5c ec 3e 5d 99 72 3e
       0.3893973 0.17861825 0.46164343 0.23691316
000090 bd 33 c4 3e 62 ac e1 be e7 e8 ba 3e a9 e4 62 be
       0.38320723 -0.4407683 0.36505815 -0.2215754
0000a0 8b d8 0d be 5e 1c c9 3d 67 60 d5 bd 94 12 f0 be
       -0.13852136 0.09819864 -0.10418778 -0.46889174
0000b0 94 7c 00 3f 63 4d aa be 9a b0 be 3e 08 cb 8c be
       0.5019009 -0.33262166 0.3724411 -0.2749865
0000c0 f4 19 37 3e d8 3b d2 be ed 24 bf 3e bb 2d fd 3b
       0.17880994 -0.41061282 0.3733286 0.0077263988
0000d0 2f 75 d9 3e 0e 5b cf be fb 1e f9 bd d9 71 da 3e
       0.42472216 -0.40499157 -0.12164112 0.42664984
0000e0 8b 6a 17 be 38 92 27 3e 4e 48 b4 be f3 3d 00 3e
       -0.14786737 0.16364372 -0.35211414 0.12523632
0000f0 b0 c1 46 be f1 25 a5 3e 93 5d b1 be 96 93 92 be
       -0.19409823 0.3225551 -0.34641704 -0.28628224
000100 7b 25 d7 3e 4c a3 a4 bd 2a 54 76 3e 8c 11 6d 3e
       0.42020783 -0.08038959 0.24055544 0.23151225
000110 69 80 b7 be f9 6e b4 be a3 03 b3 be 7c ef d4 3d
       -0.35840157 -0.35240915 -0.34963712 0.103972405
000120 51 63 e5 be 3d 63 d4 3e f6 2c bd be a7 5c af be
       -0.44802335 0.41481963 -0.36948365 -0.34250376
000130 e8 47 2c 3e a9 a0 4c 3d 2d 6c 62 3d 01 64 3d 3e
       0.16824305 0.049957905 0.055278946 0.1849518
000140 ba 37 b3 3e 0b dc a2 3e 23 55 3f be 97 96 3b bd
       0.35003453 0.31808504 -0.18684821 -0.04579791
000150 2b 5e d6 bc d0 1b b0 be 8c 73 d9 3e 15 5b a3 3e
       -0.02616795 -0.3439622 0.42470968 0.31905428
000160 18 a9 7c 3e 43 d5 e4 be d9 85 c3 3e fa 32 cb be
       0.24673879 -0.44693956 0.38188055 -0.3968733
000170 5c 28 ea 3e a1 87 29 3d 69 d2 14 be 56 1d eb be
       0.45733917 0.04138911 -0.1453339 -0.4592082
000180 9d 52 d7 3e 85 c0 23 bd 6f 28 81 3d b0 1b 4d 3e
       0.42055216 -0.039978523 0.0630654 0.20030093
000190 d8 83 66 3e 8e 3e a0 be 24 4f 63 3e b5 85 1b be
       0.22511232 -0.31297725 0.22198159 -0.15187724
0001a0 64 47 17 bd f1 3a 74 3e 27 90 00 3d c0 73 34 be
       -0.036933318 0.2385061 0.031387474 -0.1762228
0001b0 fc 71 4d 3e cd 0c 6e be f0 8e 25 3e 67 9a 80 bd
       0.20063013 -0.2324707 0.16167808 -0.0627945
0001c0 6c 02 65 bd c3 5c 53 be aa 69 fa 3e 53 38 0a 3e
       -0.055910513 -0.20640855 0.4890874 0.13498048
0001d0 0c 26 ce 3c 6c 28 c6 be 5e 62 b9 be a1 af 97 3e
       0.025164627 -0.38702714 -0.3620786 0.29626182
0001e0 0d 08 e6 be 7b 0d 30 3e 12 48 a8 3d 59 ff dc 3e
       -0.44928017 0.17192642 0.08216871 0.43163565
0001f0 73 0e 03 be ec d4 c5 3e b5 69 cf bc 6f d9 93 be
       -0.1279848 0.3863901 -0.02531896 -0.28876826
000200 c4 62 c1 3e 3b d5 41 be 30 4a 9e 3e d8 ce 44 bb
       0.37770665 -0.18928997 0.30915976 -0.0030030515
000210 8c 0b f7 be 7d 4c f0 3e 59 df cb be c4 39 b7 3e
       -0.48250997 0.46933356 -0.39818838 0.3578626
000220 42 cb 2e 3d 39 78 a4 3e a2 f5 a5 be 88 7c ec bd
       0.04267431 0.32122973 -0.32413965 -0.1154719
000230 c7 59 a8 3e 8f 34 cc be 49 c2 6e 3e 73 53 44 3e
       0.32880995 -0.3988385 0.23316301 0.19172458
000240 ab 69 94 3e 57 48 32 3e 83 1d 71 bd e1 a0 2f 3e
       0.28986868 0.17410408 -0.058866035 0.17151214
000250 48 a0 1a be 51 9b b2 be 2b b4 9a 3e f4 dc d9 3d
       -0.15100205 -0.34884122 0.30215582 0.106378466
000260 79 8b d2 3e a8 10 7f be 76 d2 bd 3e c9 82 4b be
       0.41122034 -0.24908698 0.3707463 -0.1987411
000270 57 00 8e bd 8a 92 a9 3e b6 dd 58 3e 8a ae 64 be
       -0.069336586 0.33119613 0.21178326 -0.22332206
000280 9a e7 3b 3e e7 e6 b7 3e 61 cd 6c 3c d7 4b 86 3d
       0.18350068 0.35918352 0.014453263 0.06557434
000290 98 42 02 be 30 61 db 3b a3 55 75 3e f0 47 af be
       -0.12720716 0.0066949353 0.23958449 -0.3423457
0002a0 9d 52 a1 3e 82 20 86 bd 45 2d ac be 64 0d d3 be
       0.3150834 -0.06549169 -0.33628288 -0.41221154
0002b0 6a 28 72 3e 2a 97 c3 3c 52 b5 df 3e 63 b4 f6 be
       0.23648229 0.023875792 0.43693024 -0.481845
0002c0 53 9a 5e be 90 37 04 be c8 c7 80 3e 0a 5b 26 3e
       -0.21738558 -0.1291182 0.2515242 0.16245666
0002d0 fa 7d 5c 3e 39 06 b8 be 01 3e be be 7e 76 b1 3e
       0.21532431 -0.35942248 -0.3715668 0.34660715
0002e0 b6 7f cc 3c b2 c5 57 3c e1 19 fa be eb 5e cd 3e
       0.024963241 0.013169693 -0.4884787 0.4011148
0002f0 37 4b da be af c7 04 3e 20 cc 28 be 1f 08 ee be
       -0.4263551 0.12966798 -0.16484118 -0.4649057
000300 f3 8e a0 3e 6b 87 c3 be 6d e9 97 bd 30 aa 9f be
       0.31359062 -0.38189253 -0.07417569 -0.3118453
000310 c2 c6 5f be 51 cd d6 be 2d c8 5d 3d e3 6d 5d 3e
       -0.21853164 -0.4195352 0.05414598 0.2162395
000320 f7 33 d1 be 24 13 c8 3e e9 1b da 3c 67 fd 07 bd
       -0.4085996 0.39077103 0.026624637 -0.033200648
000330 4b fd 73 3e c2 48 19 be 60 c8 61 3e 06 2f c4 3e
       0.23827092 -0.14969161 0.22049093 0.38317126
000340 be 22 34 3e 20 aa e7 3d c3 30 d0 bd 3a 52 bc 3d
       0.17591378 0.11311746 -0.101655506 0.09195371
000350 a2 de e7 3e 92 43 8e be 80 b4 e4 bd b2 0c f9 3d
       0.45287043 -0.27785927 -0.1116724 0.121606246
000360 55 c9 7f 3e e8 95 13 3d ff 06 e8 3a d1 ed b1 be
       0.24979146 0.036031634 0.001770228 -0.34751752
000370 20 5d a5 3e 89 ce d9 3e fe da 9c 3e d7 12 ce be
       0.3229761 0.42540386 0.30635828 -0.4024875
000380 82 ea c5 3e a8 a5 c8 3e 8d df 98 3e 16 e4 51 3e
       0.38655478 0.39188886 0.29858056 0.20497164
000390 55 44 ba 3e b5 42 ee be ad 64 3f bd ac f9 87 be
       0.36380258 -0.46535268 -0.04672687 -0.26557672
0003a0 c1 a8 3f 3d a8 af 08 3f 60 64 c8 be a0 d1 c8 be
       0.046791796 0.5339303 -0.3913908 -0.3922243
0003b0 f2 2a 0a 3d 67 a6 e4 be 90 49 9e 3e 49 8b b2 be
       0.033732362 -0.44658205 0.309155 -0.3487189
0003c0 18 8b 80 be b1 fb 01 be 1b 3b e9 3e a3 f2 f6 3e
       -0.2510612 -0.12693669 0.45552906 0.48231992
0003d0 38 cd f5 3d cf 9f f5 be 9c b9 5c be 69 5f dc 3d
       0.12002033 -0.47973487 -0.2155518 0.107603855
0003e0 bc 3f a6 be 33 25 d1 3e 59 1f 2e be f0 65 e7 3e
       -0.324705 0.40848693 -0.17004146 0.4519496
0003f0 71 7c 2a be dd 86 81 3e 93 10 25 be aa c3 57 be
       -0.16649033 0.25298205 -0.16119604 -0.21070734

imputation_module.discriminator.net.4.bias f4 [4]
000000 df 15 e7 bd 9e 7d e1 bd 50 2d e0 bd c3 9d ec bd
       -0.112834685 -0.11010288 -0.10946143 -0.11553528
