demo_LSTM_preAD_Risk_v1_2b/output/LSTM_determ_res_mono_risk_interp_smooth_0.pt (torch, 215176 bytes, 13 tensors)

lstm_model.lstm.weight_ih_l0 f4 [256, 4]
000000 19 0e c2 bd bb 51 4d 3e af 5c 18 be 69 3e a9 3e
       -0.09475345 0.20050709 -0.14879106 0.33055428
000010 0a eb d4 3d 40 69 09 be e5 5a 38 be 06 97 a1 3d
       0.10396393 -0.13419056 -0.18003424 0.078901336
000020 7e fa 4b 3e f0 7b 7d 3e 10 ae 50 be b2 69 e7 bd
       0.19919774 0.2475431 -0.203789 -0.11299457
000030 70 2f 1a 3e 50 03 95 bd c4 c8 81 be 16 7f 94 3c
       0.15057158 -0.072760224 -0.25348485 0.018127006
000040 94 b5 29 3e 7c 58 e3 3d 1b 04 bf 3d 04 69 26 3e
       0.16573173 0.111008614 0.09326955 0.16250998
000050 50 8b 86 be 78 f9 04 3e ec 71 fe 3d 95 46 c8 3d
       -0.26278162 0.1298579 0.124240726 0.097790875
000060 09 48 b1 bd 52 48 d5 3a fc 8d e0 be 10 b7 41 3e
       -0.08656318 0.0016272163 -0.43858325 0.18917489
000070 87 22 83 be c8 16 c4 bc 25 dd 2c 3b 1d 0d b0 3e
       -0.2561228 -0.023936644 0.002637693 0.34385005
000080 7f 93 90 3d e2 55 ff bd b5 4e c5 be 2a ba 11 be
       0.07059383 -0.12467553 -0.3853661 -0.14231172
000090 cd fe a4 be 25 ba a8 3d 28 d1 dd 3d 7c a1 2e 3e
       -0.32225648 0.08238629 0.10830909 0.17053789
0000a0 c9 58 a8 bd 5b c0 88 3d 5e a7 a0 bc c5 16 6f 3e
       -0.082200594 0.06677314 -0.019611057 0.2334853
0000b0 3f 3b 3a be 9e 3a a2 3e 51 66 a0 bd e7 32 74 3e
       -0.18186663 0.31685346 -0.07832015 0.23847543
0000c0 0e e6 be 3d 63 bb a7 be 14 a4 b6 be 58 07 9c 3d
       0.09321223 -0.32760152 -0.35672057 0.07618588
0000d0 b3 22 46 3d 4d 33 e5 bc bb ef 16 bc 22 17 e2 3c
       0.048372936 -0.027978564 -0.00921243 0.027598921
0000e0 8d 02 bd 3e 45 62 b8 be 76 56 3d 3c a8 3b 1d 3b
       0.3691601 -0.36012474 0.011556258 0.0023991857
0000f0 2c 24 82 3e d6 88 52 3b a9 70 88 3e 00 96 ab 3e
       0.25418222 0.0032125018 0.26648453 0.33512878
000100 4f 22 99 3d 27 38 c9 3d 47 34 64 3e 95 76 97 bd
       0.07477247 0.09825163 0.22285567 -0.073956646
000110 ef 72 35 be 74 38 99 3e 39 5d 7e 3d 18 b4 a1 bb
       -0.17719625 0.29925883 0.062100623 -0.004934799
000120 25 10 d4 be b7 4d e0 3e 04 af 1a 3e a2 c1 16 3e
       -0.41418567 0.43809292 0.15105826 0.14722303
000130 85 d1 fe 3d fc 59 87 3e de 22 7a be a5 b8 ab 3b
       0.124423064 0.2643584 -0.24427363 0.005240517
000140 f2 42 80 3d 58 8c 9e 3e f8 81 df bc e3 bc 6a be
       0.06262769 0.3096645 -0.027283654 -0.22923617
000150 47 e5 66 be 5f f0 56 3e 8f 10 fa bd c8 58 dd 3c
       -0.225484 0.20990132 -0.122101896 0.027019873
000160 c7 7f 60 be e8 cc 1e 3e 17 16 18 bd b5 4c 84 3e
       -0.21923743 0.15507853 -0.03713044 0.25839773
000170 f0 db 14 3e 1d 21 be bc 1b fc a1 bc b7 5b 94 3e
       0.14537024 -0.023209149 -0.019773534 0.28976223
000180 b1 94 f5 3d 01 6d b4 3d 6b e8 9f bd 61 d6 d5 3d
       0.11991251 0.08809853 -0.07808002 0.1044128
000190 cc a9 80 bd 07 92 b3 3e 09 80 df bd 80 bf 78 3e
       -0.06282386 0.35072348 -0.10913093 0.24291801
0001a0 3f 9e 17 3e 21 77 ad 3e 22 a5 c8 bb 68 14 94 3e
       0.1480646 0.3387995 -0.006123201 0.2892182
0001b0 a0 ba d6 be 7d 77 f9 3d 3e 6e 45 3e af 9d 35 bd
       -0.4193926 0.12180994 0.19280335 -0.044339832
0001c0 e7 cb 14 be 75 ea 18 3e 04 cb 71 3e c0 24 85 3d
       -0.14530908 0.14933188 0.236126 0.0650115
0001d0 fa b3 b0 3e 66 f9 65 bd ef 7a 18 be b8 ca 16 bd
       0.3451231 -0.056146048 -0.14890645 -0.03681442
0001e0 a3 a8 78 3d 31 97 77 3e 67 40 48 be 96 cd 35 3c
       0.0607077 0.24178769 -0.19555818 0.011096379
0001f0 17 47 36 be 6e f1 2a 3d 91 d9 0a be 7a 00 41 3d
       -0.17800556 0.04173415 -0.13559557 0.047119595
000200 60 aa 32 bd b0 0d 29 3b ad b7 82 3e de 34 52 3e
       -0.043619514 0.0025795512 0.25530759 0.2052798
000210 69 a3 ba bc c6 ec ca 3e 9a b0 25 bd 74 5a c5 3e
       -0.022782998 0.3963377 -0.040451623 0.38545573
000220 d2 23 50 3d e3 da 67 be d9 ae 05 be 99 e9 2b be
       0.05081541 -0.22642092 -0.1305498 -0.16788329
000230 e1 84 71 3e cf 16 13 3e 30 a6 0c be dd 52 1a be
       0.23585846 0.1436417 -0.1373527 -0.15070672
000240 f8 e6 1f 3e a6 83 4e be 08 eb e5 3d ee ea 3e bd
       0.15615451 -0.20167407 0.11226469 -0.046610765
000250 c5 2f a4 3e f2 ba 7d be e9 1d 97 bb 12 0d 9a 3d
       0.32067695 -0.24778345 -0.00461172 0.07522024
000260 ec 2d 3a be 8f 89 a1 3e 1b c5 92 3e 83 2e a2 3e
       -0.1818158 0.3155026 0.28666005 0.3167611
000270 c9 fb 5b be 1f 58 68 3d 97 dd 92 be 9f 5c 5d 3d
       -0.21482767 0.056724664 -0.28684685 0.05404341
000280 84 5d 49 bd c3 38 37 bd 07 79 ce bd c6 77 f0 bd
       -0.04916145 -0.044731867 -0.10081678 -0.11741595
000290 13 02 1a be 49 61 8c 3e e3 a3 97 bd a3 cb ae 3e
       -0.15039854 0.27417973 -0.07404306 0.34139737
0002a0 3d 30 ce 3d 9c 9e 0f be 96 51 18 be 6e 91 14 be
       0.100677945 -0.14025348 -0.14874873 -0.14508602
0002b0 26 ec 65 be 20 e7 20 3e 51 bd 00 be 86 61 e3 3d
       -0.22453365 0.15713167 -0.12572218 0.111025855
0002c0 26 03 28 3e ad b3 b9 bd 83 70 83 3e 73 37 96 3e
       0.16407451 -0.090674736 0.25671777 0.2933918
0002d0 db cf 33 be b2 88 4a be da 4c bf 3e 71 a2 e9 3d
       -0.1755976 -0.19778708 0.3736332 0.11407936
0002e0 a4 ac f4 3e 9d 90 29 be 70 9c c2 bd 4f 36 d0 bd
       0.47787964 -0.16559072 -0.09502494 -0.101666085
0002f0 86 55 13 3d f6 4b d8 bc a7 ee 16 be bf aa 4e 3d
       0.035970233 -0.026403408 -0.14739476 0.050455805
000300 a9 93 9b 3e f9 06 06 bd ec f4 89 3c a2 8b af bd
       0.30386093 -0.032721493 0.01684042 -0.08571555
000310 d7 71 51 be ea b4 2a be 33 49 39 be e2 57 22 3e
       -0.20453583 -0.16670576 -0.1809433 0.15853837
000320 79 10 6c 3e 91 3a b9 bd 5e cf 7d 3d c3 49 af 3e
       0.23053159 -0.09044374 0.06196534 0.34235963
000330 1f 6e a5 be 4d 58 6c 3e 8f 2a 49 3e cc 4e 60 3e
       -0.32310578 0.23080559 0.19645141 0.21905059
000340 e0 1f 24 3e 90 2d 30 be b8 20 79 be ec 13 c9 3d
       0.16027784 -0.1720488 -0.24328887 0.09818253
000350 a6 8a 27 be e4 ad 27 3e e4 97 6e be 22 0f de bd
       -0.16361484 0.16374928 -0.23300129 -0.1084273
000360 a9 44 b8 3e 6a 58 23 3e f4 26 f0 3e c1 bf fe bd
       0.35989884 0.15951696 0.4690472 -0.12438918
000370 18 bf b0 3d 1a e7 5f bd 2c 26 96 3e a9 80 56 3d
       0.08630198 -0.054663755 0.29325998 0.052368794
000380 3d dd 74 3e c6 2c c3 3d f5 ec 8e bd 6c 82 b5 3d
       0.2391252 0.09530024 -0.0697879 0.088627666
000390 cb 8e 8d be 49 16 30 3e 01 ee 8e 3e 9f 2b 5f 3e
       -0.27648005 0.17196001 0.27915958 0.21793984
0003a0 75 cc 77 bd 17 0b 69 3e 76 c6 23 be a9 2a 54 3d
       -0.06049772 0.22758137 -0.15993676 0.051798496
0003b0 9a 61 32 3e 81 16 d2 3d 62 6c ba 3e 65 6a 03 be
       0.17420045 0.102581985 0.36410815 -0.12833555
0003c0 97 fe 72 3e 9d 2c 51 be d1 32 3a 3e 0d fb 75 bd
       0.23729931 -0.20427175 0.18183447 -0.060053874
0003d0 c6 85 f0 bd de e3 be 3e 10 b9 d8 bd c7 8e 15 3e
       -0.11744265 0.37283224 -0.10582173 0.14605246
0003e0 77 37 3e bd 49 6e 08 be 36 a0 7e be 14 79 4b bd
       -0.046439614 -0.1332332 -0.24865803 -0.049676016
0003f0 11 24 fb 3c 0e 8a 1a 3e b9 01 f4 bd 82 78 e5 3e
       0.030656846 0.15091726 -0.11914391 0.44818503

lstm_model.lstm.weight_hh_l0 f4 [256, 64]
000000 22 7b 17 3d 88 cb bf bd 50 64 84 3e 7f 13 a2 bd
       0.036982663 -0.093649924 0.25857782 -0.07913875
000010 c7 e4 b3 bd 5c 6c d0 3d cc 90 1f be e6 a9 89 3d
       -0.0878387 0.10176918 -0.1558258 0.06721859
000020 9d f2 1e bd d9 7d bf 3c d7 2f 36 3d 60 2c 1c be
       -0.038805593 0.023375439 0.044479217 -0.15251303
000030 ea 23 4c bc 87 0a 4d 3e a2 9d b1 3d ce 01 85 bd
       -0.012459734 0.20023547 0.08672644 -0.06494485
000040 a8 8c 06 bd d0 15 f3 bd a8 33 5f 3d 07 f8 04 3e
       -0.032848984 -0.11869395 0.054492623 0.1298524
000050 7a 5d f8 3c df 2b 0c be af 5c 02 be ae c3 93 3b
       0.03031801 -0.1368861 -0.12730668 0.004509411
000060 6a 6c 96 3c 3e 84 02 3e 5c c0 c8 3c f8 90 15 bd
       0.018362243 0.12745759 0.024505787 -0.036515206
000070 52 e3 1d be a8 c4 b2 3b 16 1c ac bc 63 2e 7c 3d
       -0.15418747 0.005455572 -0.021009486 0.061567675
000080 29 fa 4d be 9a 1d 15 3e 58 01 00 be fe 45 14 39
       -0.2011496 0.14562073 -0.12500513 0.00014140454
000090 7b 1b e6 3d d0 6a 0f be 0d 95 fa 3d 50 20 a9 3d
       0.1123571 -0.1400559 0.122354604 0.08258116
0000a0 38 0c fd bd 7a 3e 44 3e d8 11 41 3e 1c 06 a0 bd
       -0.12355846 0.19164458 0.18854463 -0.07813665
0000b0 1d cd e7 bd 67 33 b1 bd a0 5e 31 3e d7 76 19 3d
       -0.11318419 -0.08652382 0.17321253 0.03746685
0000c0 39 ef 95 3d d3 53 64 3e 26 a1 07 be 2d e9 d1 3d
       0.07321019 0.22297601 -0.13245067 0.10249553
0000d0 dc 6b 10 3e 47 5e 0d 3e f9 eb 36 3e 4f 2c 65 bd
       0.14103645 0.13805495 0.17863454 -0.05595046
0000e0 27 a7 59 3e 9d e6 5d be 4a 5b b6 bd ef 1e 63 3e
       0.2125517 -0.21670003 -0.08904131 0.22179769
0000f0 e9 69 5f be 22 ab 02 be 28 f4 e4 3d 73 63 eb bc
       -0.21817745 -0.12760594 0.111793816 -0.028733945
000100 39 d5 8c bc 2f af 4e 3d ea 3d c0 bd fb 14 a6 bc
       -0.017191516 0.050460037 -0.09386809 -0.020273676
000110 5b 95 86 3d 9e 72 31 be c7 f1 ed 3d 5e c6 8c be
       0.06571456 -0.17328879 0.11618381 -0.27495092
000120 bb 8c b6 3e cf cd 50 be 44 05 3a be ea 93 48 3e
       0.35654244 -0.2039101 -0.18166071 0.19587675
000130 c8 7a 67 3d cf b5 0d be f1 1a c3 3e 34 99 2b bc
       0.056513578 -0.13838886 0.38106492 -0.010473538
000140 99 c8 02 be 8f 66 83 3d ec 74 08 3e e7 b9 24 be
       -0.12771834 0.06416046 0.13325852 -0.16086541
000150 50 76 1c be 51 ae 4c 3e 02 b1 a5 bd 53 40 f6 3d
       -0.15279508 0.19988371 -0.08090402 0.120239876
000160 d2 ef 08 3e 43 92 fe bd b1 ee ad bd af 6a 5f 3e
       0.13372734 -0.12430241 -0.084927924 0.2181804
000170 67 84 1c be 8e 75 3b 3e 78 fa 01 3e 36 f3 3e 3e
       -0.15284882 0.18306562 0.12693202 0.18647465
000180 35 06 20 3e 40 92 90 bd 79 fc 21 be 10 86 9d bd
       0.15627368 -0.07059145 -0.15818967 -0.07691586
000190 d3 e1 90 bd 74 07 5c be 48 42 1e 3e 8a 47 09 3e
       -0.070743226 -0.21487218 0.15454972 0.13406196
0001a0 64 c4 2b bb 23 83 01 be 1a d1 4b 3e c5 33 1f 3e
       -0.0026209587 -0.12647681 0.19903985 0.15547092
0001b0 cb 38 8b bd ee 5e 04 3b 95 cd d3 bd 23 3b e5 bd
       -0.06797942 0.0020198184 -0.10341946 -0.1119292
0001c0 a4 53 ab bd 12 30 fa bd 1e 60 33 bd 4f 0b 08 be
       -0.083655626 -0.122162 -0.043792836 -0.13285564
0001d0 53 52 7a be 72 c8 d2 bd 59 be 26 be 3d 2a 9a bd
       -0.24445467 -0.10292138 -0.1628355 -0.075275876
0001e0 7d a7 11 3e c8 06 46 3e 0f 5e 2f 3e f8 62 25 3e
       0.14224048 0.19338524 0.17125724 0.16151035
0001f0 85 36 88 be c0 f6 4d 3e 31 76 5d bd 7f ee 74 3e
       -0.26604095 0.20113659 -0.054067794 0.23919104
000200 72 bf 2b 3e 2d a1 58 be 82 67 39 3d 65 65 e5 bd
       0.1677225 -0.21155234 0.04526473 -0.1120098
000210 fc 29 91 bd bf 76 68 bd 9a 39 ca bd d9 65 5c 3d
       -0.07088086 -0.05675387 -0.09874268 0.053808067
000220 7e fa 34 3e 0e 9c a9 bd d2 df 18 be 64 68 68 bd
       0.1767368 -0.08281718 -0.1492913 -0.05674018
000230 41 0f c5 be 74 f0 d6 3c 82 59 81 3d 8c 53 b8 3d
       -0.384882 0.026237704 0.063159004 0.0900031
000240 94 7c 17 3e bc 72 38 be 3e 33 ba 3c fa 2b 35 be
       0.14793617 -0.18012518 0.022729512 -0.17692557
000250 d2 65 4d 3e a0 f6 4a be ba 0f 15 be 62 a7 d5 3d
       0.20058373 -0.19820642 -0.1455678 0.10432316
000260 a7 f3 f4 3d ba be f3 3d 5d 6d 87 3d 6b 27 80 3c
       0.119605355 0.119016126 0.06612656 0.015643796
000270 58 8f b0 3d 88 73 57 3e 37 17 59 3d 29 89 0b be
       0.08621091 0.21040165 0.053000655 -0.13626541
000280 c5 49 f1 bd 88 1d 99 3e cd ff 3a 3d 40 b7 66 bc
       -0.117816485 0.29905343 0.045654107 -0.014081776
000290 1f 22 7b 3d 34 36 7c be 67 b0 58 3e 04 5c f0 bc
       0.061311837 -0.24630052 0.21161042 -0.029340751
0002a0 ee cd e6 bd 88 08 fa bc e9 af 54 be ab 9e 7f be
       -0.11269747 -0.030521646 -0.2077023 -0.24962871
0002b0 ab 49 ac 3d f3 b6 68 3e 2b 76 0c bb 35 5c 91 be
       0.084124885 0.2272604 -0.0021432738 -0.2839066
0002c0 f7 04 98 3d 2f b0 28 bd 78 b8 71 be 82 be 17 3d
       0.07422822 -0.041183647 -0.23605525 0.037046917
0002d0 ce 23 a1 be a3 7b 8c 3c 73 d0 8e 3e b4 8c 30 be
       -0.3147263 0.017148798 0.2789341 -0.17241174
0002e0 10 23 95 bd 99 c2 48 be d4 2c 48 3d aa 00 7d be
       -0.07282078 -0.19605483 0.048870876 -0.24707285
0002f0 77 d3 8c be de 41 c7 bc a2 4a 05 be 13 4c c7 3c
       -0.27505085 -0.0243234 -0.13016751 0.024328267
000300 5a b4 c1 3e df e3 bf bd 24 8b 8a 3e d9 29 af 3e
       0.3783291 -0.09369635 0.2705928 0.34211615
000310 b1 dc 25 3d 22 88 46 3c 39 27 4d be 9c e9 e3 bc
       0.04049367 0.0121174175 -0.20034494 -0.027821355
000320 f7 ad a4 be 02 5d a5 3d bb 98 1f be 4a c8 05 be
       -0.32163975 0.080743805 -0.15585606 -0.13064685
000330 13 69 83 be 0f 98 61 3e de a0 2a be a5 74 a4 3e
       -0.25666103 0.22030662 -0.16662928 0.32120243
000340 88 5f c9 bd ac cd 5b 3d 2c a5 af 3d 4f 4e 21 3e
       -0.09832674 0.05366294 0.08576426 0.15752529
000350 df 9c d4 3d c1 b0 96 be cf 6a 55 be 2a 5a d9 bc
       0.10381483 -0.29431728 -0.20841525 -0.026532251
000360 66 4e 67 be e9 3a c1 3d 26 0a 13 3e 5a c6 2c be
       -0.225885 0.09435064 0.1435934 -0.1687254
000370 36 e5 df bd 3f 0b 25 be 2a 83 96 be 67 11 2d be
       -0.109323904 -0.16117571 -0.29396945 -0.1690117
000380 bf a8 62 be 4b b2 94 be 18 3d da 3d bd 55 53 3e
       -0.22134684 -0.29042277 0.10656184 0.20638175
000390 59 f4 c3 3e ba 87 80 bd 33 3a 91 be 18 5b a1 be
       0.3827236 -0.06275888 -0.28364715 -0.31514812
0003a0 75 01 86 3d cc dd 89 3e 6b 22 c8 3d 42 f5 69 be
       0.06543247 0.2692703 0.0977219 -0.22847465
0003b0 7b 42 3e be e1 42 39 3d c3 94 b2 3e f5 45 82 3d
       -0.18580048 0.045229796 0.3487912 0.063609995
0003c0 00 c2 16 3e d6 f5 3d 3e 43 a5 37 be 2b fc 83 3e
       0.14722443 0.1855081 -0.17934136 0.25778326
0003d0 1b 29 df 3d 5d 30 59 3e 09 b6 3c 3e 68 88 97 be
       0.10896512 0.21209855 0.18428816 -0.29596257
0003e0 11 14 74 3d 2b 2d a6 bd 98 53 44 bd b2 e8 72 3e
       0.05958945 -0.08114084 -0.047931284 0.23721579
0003f0 5b fe 4f be d4 09 8e be 22 1d 8a 3e 84 87 80 be
       -0.20311873 -0.27741873 0.26975352 -0.2510339

lstm_model.lstm.bias_ih_l0 f4 [256]
000000 c6 76 a1 3e e5 69 26 3e 4c d3 62 3e 1c b3 97 3e
       0.3153593 0.16251333 0.22150916 0.29628837
000010 0a 91 b6 3d 04 e7 60 3e 29 b3 20 3e 00 cc 87 3e
       0.08914383 0.21963125 0.15693344 0.26522827
000020 90 5c a0 3d e9 61 9c 3e f8 64 9d 3e 13 52 8d 3e
       0.07830155 0.3054345 0.30741096 0.2760168
000030 da 69 78 3e 53 71 44 3e ad e9 22 3e 8a 0f 43 3e
       0.24259129 0.19183855 0.15909453 0.19048896
000040 6e ca b0 3e 64 1b 3f 3e 9c db 30 3e b2 d2 8b 3e
       0.34529442 0.18662792 0.17271274 0.27309185
000050 dd 2c 1c 3e 14 7e 74 3e 74 31 03 3e 00 a7 50 3e
       0.15251489 0.2387622 0.12811834 0.20376205
000060 fe 73 81 3e bc 17 30 3d 83 62 81 3e e9 f4 56 3e
       0.25283808 0.042991385 0.2527047 0.20991863
000070 9d fd 0f 3e e9 54 67 3e 7c 68 67 3e bb 22 24 3e
       0.1406159 0.22590984 0.22598451 0.16028874
000080 2e 2a fa 3d d7 47 f7 3d 1b 4a 8c 3e d2 db 26 3e
       0.122150764 0.12074249 0.27400288 0.16294792
000090 3f f1 80 3e af c3 2f 3e b8 ab f8 3d 89 7d b0 3e
       0.25184056 0.17164491 0.12142128 0.34470776
0000a0 36 04 44 3e c0 fe b8 3d 13 80 62 3e ad 10 77 3e
       0.19142231 0.09032965 0.22119169 0.24127455
0000b0 5f 33 38 3e a0 36 81 3e 5b 82 4e 3e fe 9b 4d 3e
       0.17988347 0.25236988 0.20166914 0.20079038
0000c0 82 f0 5c 3e 19 3e 42 3e 2b c6 01 3e a1 9d 87 3e
       0.21576121 0.18969001 0.12673251 0.2648745
0000d0 dc 2e 08 3e a3 7a 4e 3e f7 5a 80 3e c3 99 39 3e
       0.13299125 0.2016397 0.250694 0.18125062
0000e0 d5 30 2a 3e e2 bd 00 3e 1f 26 85 3e 71 80 4f 3e
       0.1662019 0.12572435 0.26005647 0.2026384
0000f0 a3 1f 3b 3e 52 1c 04 3e 3e dc 69 3e 13 73 5b 3e
       0.18273787 0.12901428 0.22837922 0.21430616
000100 ad 88 15 be 13 71 87 bd 7c c7 d4 bd 93 71 45 be
       -0.14602919 -0.06613364 -0.10389611 -0.19281606
000110 d6 52 01 bd e6 d6 18 be cb b9 d5 bd 1d c7 33 be
       -0.03157314 -0.14925727 -0.10435828 -0.17556424
000120 67 1a b5 3d 7e 0a 42 be 20 0c 4a be 52 86 ea bd
       0.088429265 -0.18949315 -0.19731188 -0.11451401
000130 de 70 1c be f9 c2 f9 3d a2 99 7f bd 4d ef 81 be
       -0.1527743 0.12195391 -0.062402375 -0.25377885
000140 d4 93 2e be f6 b1 93 bd a6 db a4 3b 61 e9 0b be
       -0.1704858 -0.07211678 0.005031067 -0.13663246
000150 a5 d3 e8 bd 9e 6d 15 be 09 04 e5 bd ed 22 0f be
       -0.11368493 -0.14592597 -0.1118241 -0.13978167
000160 f9 84 ce bd d3 37 a1 bd bd b5 28 be e3 d8 4b be
       -0.10083956 -0.07871976 -0.16475578 -0.19906954
000170 76 7d 9d bd 02 5c ae bd b2 76 8b bd 2e 9b 3d be
       -0.076899454 -0.08513643 -0.06809749 -0.18516228
000180 e3 3a 1a be 97 c7 86 be b1 21 23 be 52 57 ee bd
       -0.15061526 -0.2632415 -0.15930821 -0.11637749
000190 d5 bd 2e be 79 0d 31 3d d6 d9 5a be 37 52 46 be
       -0.17064603 0.04322574 -0.2137216 -0.193673
0001a0 a4 cc dc 3d 22 e2 cd bd 42 a7 3f be 2d bd 0b be
       0.107812196 -0.10052897 -0.18716148 -0.13646384
0001b0 fb 0b c5 bd ff 87 e6 bd bc 31 c7 bd 36 d5 40 be
       -0.09621426 -0.11256408 -0.09726283 -0.18831334
0001c0 2c 47 2b be ee 59 e2 bd 09 5e 7e 3c d3 ec 24 be
       -0.16726369 -0.11052309 0.015525349 -0.16105966
0001d0 8d 40 42 3d df 37 e9 bd 2e fe 3f be b8 2a 5d be
       0.04742484 -0.1138761 -0.18749306 -0.21598327
0001e0 23 10 50 3d 37 55 5b be d5 90 10 be e5 ba e8 bd
       0.05079664 -0.21419226 -0.14117749 -0.11363772
0001f0 be 8b 02 be e5 8d d8 bd 79 1e 15 3e 9e 11 d3 bd
       -0.1274862 -0.10573939 0.14562406 -0.103060946
000200 32 ee 02 bc a6 d1 5d 3d 0a dd d8 bc c4 c0 10 3c
       -0.0079913605 0.054155014 -0.026472587 0.008835021
000210 13 ff 4b 3d 2c 65 92 bc c3 b8 4a 3d 8b 1b 81 bb
       0.049803805 -0.017870508 0.04949261 -0.003940051
000220 fb 88 4e 3d f0 34 4c 3d 76 36 1c 3d 0d f8 91 ba
       0.050423604 0.049855173 0.038137875 -0.0011136547
000230 28 4f 69 3c d4 65 d2 bc c0 5e 86 3d 8a 7e e6 3c
       0.014240064 -0.025683321 0.06561041 0.02813651
000240 61 2b 8c bb df f4 89 3c 56 02 8c 3d 05 03 2a bd
       -0.004277632 0.016840396 0.06836383 -0.041506786
000250 9e 30 27 3d 31 f7 0b bd 2a 6f a9 3c f1 2d 19 bd
       0.04081785 -0.034171287 0.02068289 -0.03739733
000260 57 4a ad bb e0 28 11 bd 81 93 1e bc b6 7e dd bc
       -0.005288403 -0.035439372 -0.009678722 -0.02703796
000270 a6 8b d1 3c 33 2d 32 3d 21 8b bc bb 25 7a 00 bd
       0.025579285 0.043500137 -0.00575389 -0.031366486
000280 22 df 0b bd 33 09 ea bc 9d ee 8d 3b 61 ce 1a bd
       -0.034148343 -0.02856884 0.0043314234 -0.037794475
000290 58 e6 94 bd 8d 34 c7 bd 37 50 2e bd ea bb 8a bd
       -0.07270497 -0.0972682 -0.042556968 -0.06774123
0002a0 41 22 9d 3d 07 22 0f bd a0 74 77 bd 0f 01 3b bc
       0.07672549 -0.03494456 -0.060413957 -0.011413827
0002b0 24 9a b7 bc 1f 86 70 3d db 4e b9 bd 88 48 d1 3c
       -0.022412367 0.058721658 -0.090482436 0.02554728
0002c0 8b 4d de bb d2 c5 24 bd fe 20 78 38 21 f5 ae 3b
       -0.006784146 -0.04022772 5.9158534e-05 0.0053392802
0002d0 84 31 82 bd da 69 90 3a 4c 26 13 3d b6 18 19 bb
       -0.063571006 0.0011017874 0.035925195 -0.0023360676
0002e0 a6 31 fd bb 46 73 04 bc ea 83 de 3b 0e 40 76 bc
       -0.007726866 -0.008084124 0.0067906277 -0.01502992
0002f0 ef 6a 96 3c 2e e4 2c bd 34 62 81 bd 57 45 60 3c
       0.018361537 -0.042209797 -0.06317559 0.013688407
000300 4c b7 88 3e b0 17 0e 3e 4f 01 77 3e bf b4 97 3e
       0.26702344 0.13876224 0.24121593 0.29630086
000310 39 41 97 3d 60 21 61 3e 6c cd 2b 3e b6 33 82 3e
       0.07385487 0.21985388 0.16777581 0.25430077
000320 cd 1d 39 3d b5 2c ae 3e 90 c2 97 3e 63 79 99 3e
       0.045194436 0.34018484 0.29640627 0.29975423
000330 2e 06 82 3e a1 a4 0b 3e f2 59 18 3e f3 cf 72 3e
       0.2539534 0.1363702 0.14878061 0.23712139
000340 a6 95 ae 3e 5c 82 5d 3e 15 fc 4f 3e 45 96 8e 3e
       0.34098548 0.2163176 0.20311005 0.27849022
000350 8d 86 30 3e 99 1e 6a 3e b3 b9 24 3e 6b 11 51 3e
       0.17238827 0.22863235 0.16086464 0.204168
000360 75 31 7f 3e 69 d2 cf 3d 93 79 8b 3e 3e 04 85 3e
       0.2492121 0.101475544 0.2724119 0.259798
000370 d8 32 37 3e 7f 4d 5b 3e f7 1f 6f 3e 00 81 22 3e
       0.17890489 0.21416281 0.23352037 0.15869522
000380 eb ad cd 3d e7 f9 fa 3d a0 37 85 3e ac 39 1a 3e
       0.10042938 0.12254696 0.26019 0.15061063
000390 f0 02 52 3e 20 84 a0 3d b1 aa 1c 3e e2 b7 ab 3e
       0.20508933 0.07837701 0.15299489 0.3353873
0003a0 e8 07 35 3e ce 9d bd 3d e5 67 65 3e 3b bd 67 3e
       0.17678797 0.092586145 0.22402914 0.2263078
0003b0 bb 4a 39 3e 40 14 86 3e cf 53 4c 3e e1 b9 4e 3e
       0.18094914 0.26187325 0.19953845 0.20188095
0003c0 2d 87 53 3e df b9 43 3e 0c 5f 00 3e f6 4b 93 3e
       0.20657034 0.19113873 0.12536258 0.2876889
0003d0 7f 0a f1 3d f0 b4 36 3e 8c 88 84 3e 93 95 3d 3e
       0.1176958 0.1784246 0.25885427 0.1851409
0003e0 a3 27 1a 3e 05 b9 0c 3e bd b4 82 3e f0 5e 68 3e
       0.15054183 0.13742454 0.25528517 0.22692466
0003f0 29 c4 3f 3e 7a 5b 19 3e 5b 24 45 3e f1 f7 56 3e
       0.18727173 0.14976302 0.1925215 0.2099302

lstm_model.lstm.bias_hh_l0 f4 [256]
000000 c6 76 a1 3e e5 69 26 3e 4c d3 62 3e 1c b3 97 3e
       0.3153593 0.16251333 0.22150916 0.29628837
000010 0a 91 b6 3d 04 e7 60 3e 29 b3 20 3e 00 cc 87 3e
       0.08914383 0.21963125 0.15693344 0.26522827
000020 90 5c a0 3d e9 61 9c 3e f8 64 9d 3e 13 52 8d 3e
       0.07830155 0.3054345 0.30741096 0.2760168
000030 da 69 78 3e 53 71 44 3e ad e9 22 3e 8a 0f 43 3e
       0.24259129 0.19183855 0.15909453 0.19048896
000040 6e ca b0 3e 64 1b 3f 3e 9c db 30 3e b2 d2 8b 3e
       0.34529442 0.18662792 0.17271274 0.27309185
000050 dd 2c 1c 3e 14 7e 74 3e 74 31 03 3e 00 a7 50 3e
       0.15251489 0.2387622 0.12811834 0.20376205
000060 fe 73 81 3e bc 17 30 3d 83 62 81 3e e9 f4 56 3e
       0.25283808 0.042991385 0.2527047 0.20991863
000070 9d fd 0f 3e e9 54 67 3e 7c 68 67 3e bb 22 24 3e
       0.1406159 0.22590984 0.22598451 0.16028874
000080 2e 2a fa 3d d7 47 f7 3d 1b 4a 8c 3e d2 db 26 3e
       0.122150764 0.12074249 0.27400288 0.16294792
000090 3f f1 80 3e af c3 2f 3e b8 ab f8 3d 89 7d b0 3e
       0.25184056 0.17164491 0.12142128 0.34470776
0000a0 36 04 44 3e c0 fe b8 3d 13 80 62 3e ad 10 77 3e
       0.19142231 0.09032965 0.22119169 0.24127455
0000b0 5f 33 38 3e a0 36 81 3e 5b 82 4e 3e fe 9b 4d 3e
       0.17988347 0.25236988 0.20166914 0.20079038
0000c0 82 f0 5c 3e 19 3e 42 3e 2b c6 01 3e a1 9d 87 3e
       0.21576121 0.18969001 0.12673251 0.2648745
0000d0 dc 2e 08 3e a3 7a 4e 3e f7 5a 80 3e c3 99 39 3e
       0.13299125 0.2016397 0.250694 0.18125062
0000e0 d5 30 2a 3e e2 bd 00 3e 1f 26 85 3e 71 80 4f 3e
       0.1662019 0.12572435 0.26005647 0.2026384
0000f0 a3 1f 3b 3e 52 1c 04 3e 3e dc 69 3e 13 73 5b 3e
       0.18273787 0.12901428 0.22837922 0.21430616
000100 ad 88 15 be 13 71 87 bd 7c c7 d4 bd 93 71 45 be
       -0.14602919 -0.06613364 -0.10389611 -0.19281606
000110 d6 52 01 bd e6 d6 18 be cb b9 d5 bd 1d c7 33 be
       -0.03157314 -0.14925727 -0.10435828 -0.17556424
000120 67 1a b5 3d 7e 0a 42 be 20 0c 4a be 52 86 ea bd
       0.088429265 -0.18949315 -0.19731188 -0.11451401
000130 de 70 1c be f9 c2 f9 3d a2 99 7f bd 4d ef 81 be
       -0.1527743 0.12195391 -0.062402375 -0.25377885
000140 d4 93 2e be f6 b1 93 bd a6 db a4 3b 61 e9 0b be
       -0.1704858 -0.07211678 0.005031067 -0.13663246
000150 a5 d3 e8 bd 9e 6d 15 be 09 04 e5 bd ed 22 0f be
       -0.11368493 -0.14592597 -0.1118241 -0.13978167
000160 f9 84 ce bd d3 37 a1 bd bd b5 28 be e3 d8 4b be
       -0.10083956 -0.07871976 -0.16475578 -0.19906954
000170 76 7d 9d bd 02 5c ae bd b2 76 8b bd 2e 9b 3d be
       -0.076899454 -0.08513643 -0.06809749 -0.18516228
000180 e3 3a 1a be 97 c7 86 be b1 21 23 be 52 57 ee bd
       -0.15061526 -0.2632415 -0.15930821 -0.11637749
000190 d5 bd 2e be 79 0d 31 3d d6 d9 5a be 37 52 46 be
       -0.17064603 0.04322574 -0.2137216 -0.193673
0001a0 a4 cc dc 3d 22 e2 cd bd 42 a7 3f be 2d bd 0b be
       0.107812196 -0.10052897 -0.18716148 -0.13646384
0001b0 fb 0b c5 bd ff 87 e6 bd bc 31 c7 bd 36 d5 40 be
       -0.09621426 -0.11256408 -0.09726283 -0.18831334
0001c0 2c 47 2b be ee 59 e2 bd 09 5e 7e 3c d3 ec 24 be
       -0.16726369 -0.11052309 0.015525349 -0.16105966
0001d0 8d 40 42 3d df 37 e9 bd 2e fe 3f be b8 2a 5d be
       0.04742484 -0.1138761 -0.18749306 -0.21598327
0001e0 23 10 50 3d 37 55 5b be d5 90 10 be e5 ba e8 bd
       0.05079664 -0.21419226 -0.14117749 -0.11363772
0001f0 be 8b 02 be e5 8d d8 bd 79 1e 15 3e 9e 11 d3 bd
       -0.1274862 -0.10573939 0.14562406 -0.103060946
000200 32 ee 02 bc a6 d1 5d 3d 0a dd d8 bc c4 c0 10 3c
       -0.0079913605 0.054155014 -0.026472587 0.008835021
000210 13 ff 4b 3d 2c 65 92 bc c3 b8 4a 3d 8b 1b 81 bb
       0.049803805 -0.017870508 0.04949261 -0.003940051
000220 fb 88 4e 3d f0 34 4c 3d 76 36 1c 3d 0d f8 91 ba
       0.050423604 0.049855173 0.038137875 -0.0011136547
000230 28 4f 69 3c d4 65 d2 bc c0 5e 86 3d 8a 7e e6 3c
       0.014240064 -0.025683321 0.06561041 0.02813651
000240 61 2b 8c bb df f4 89 3c 56 02 8c 3d 05 03 2a bd
       -0.004277632 0.016840396 0.06836383 -0.041506786
000250 9e 30 27 3d 31 f7 0b bd 2a 6f a9 3c f1 2d 19 bd
       0.04081785 -0.034171287 0.02068289 -0.03739733
000260 57 4a ad bb e0 28 11 bd 81 93 1e bc b6 7e dd bc
       -0.005288403 -0.035439372 -0.009678722 -0.02703796
000270 a6 8b d1 3c 33 2d 32 3d 21 8b bc bb 25 7a 00 bd
       0.025579285 0.043500137 -0.00575389 -0.031366486
000280 22 df 0b bd 33 09 ea bc 9d ee 8d 3b 61 ce 1a bd
       -0.034148343 -0.02856884 0.0043314234 -0.037794475
000290 58 e6 94 bd 8d 34 c7 bd 37 50 2e bd ea bb 8a bd
       -0.07270497 -0.0972682 -0.042556968 -0.06774123
0002a0 41 22 9d 3d 07 22 0f bd a0 74 77 bd 0f 01 3b bc
       0.07672549 -0.03494456 -0.060413957 -0.011413827
0002b0 24 9a b7 bc 1f 86 70 3d db 4e b9 bd 88 48 d1 3c
       -0.022412367 0.058721658 -0.090482436 0.02554728
0002c0 8b 4d de bb d2 c5 24 bd fe 20 78 38 21 f5 ae 3b
       -0.006784146 -0.04022772 5.9158534e-05 0.0053392802
0002d0 84 31 82 bd da 69 90 3a 4c 26 13 3d b6 18 19 bb
       -0.063571006 0.0011017874 0.035925195 -0.0023360676
0002e0 a6 31 fd bb 46 73 04 bc ea 83 de 3b 0e 40 76 bc
       -0.007726866 -0.008084124 0.0067906277 -0.01502992
0002f0 ef 6a 96 3c 2e e4 2c bd 34 62 81 bd 57 45 60 3c
       0.018361537 -0.042209797 -0.06317559 0.013688407
000300 4c b7 88 3e b0 17 0e 3e 4f 01 77 3e bf b4 97 3e
       0.26702344 0.13876224 0.24121593 0.29630086
000310 39 41 97 3d 60 21 61 3e 6c cd 2b 3e b6 33 82 3e
       0.07385487 0.21985388 0.16777581 0.25430077
000320 cd 1d 39 3d b5 2c ae 3e 90 c2 97 3e 63 79 99 3e
       0.045194436 0.34018484 0.29640627 0.29975423
000330 2e 06 82 3e a1 a4 0b 3e f2 59 18 3e f3 cf 72 3e
       0.2539534 0.1363702 0.14878061 0.23712139
000340 a6 95 ae 3e 5c 82 5d 3e 15 fc 4f 3e 45 96 8e 3e
       0.34098548 0.2163176 0.20311005 0.27849022
000350 8d 86 30 3e 99 1e 6a 3e b3 b9 24 3e 6b 11 51 3e
       0.17238827 0.22863235 0.16086464 0.204168
000360 75 31 7f 3e 69 d2 cf 3d 93 79 8b 3e 3e 04 85 3e
       0.2492121 0.101475544 0.2724119 0.259798
000370 d8 32 37 3e 7f 4d 5b 3e f7 1f 6f 3e 00 81 22 3e
       0.17890489 0.21416281 0.23352037 0.15869522
000380 eb ad cd 3d e7 f9 fa 3d a0 37 85 3e ac 39 1a 3e
       0.10042938 0.12254696 0.26019 0.15061063
000390 f0 02 52 3e 20 84 a0 3d b1 aa 1c 3e e2 b7 ab 3e
       0.20508933 0.07837701 0.15299489 0.3353873
0003a0 e8 07 35 3e ce 9d bd 3d e5 67 65 3e 3b bd 67 3e
       0.17678797 0.092586145 0.22402914 0.2263078
0003b0 bb 4a 39 3e 40 14 86 3e cf 53 4c 3e e1 b9 4e 3e
       0.18094914 0.26187325 0.19953845 0.20188095
0003c0 2d 87 53 3e df b9 43 3e 0c 5f 00 3e f6 4b 93 3e
       0.20657034 0.19113873 0.12536258 0.2876889
0003d0 7f 0a f1 3d f0 b4 36 3e 8c 88 84 3e 93 95 3d 3e
       0.1176958 0.1784246 0.25885427 0.1851409
0003e0 a3 27 1a 3e 05 b9 0c 3e bd b4 82 3e f0 5e 68 3e
       0.15054183 0.13742454 0.25528517 0.22692466
0003f0 29 c4 3f 3e 7a 5b 19 3e 5b 24 45 3e f1 f7 56 3e
       0.18727173 0.14976302 0.1925215 0.2099302

lstm_model.lstm.weight_ih_l1 f4 [256, 64]
000000 f7 ae 2e 3e a3 c7 de 3c 32 1d 9c 3e 1a fa bb 3d
       0.17058931 0.027194804 0.30491024 0.091785625
000010 bd 83 33 3e 05 46 d5 3e 2f d2 0b be 78 7c a9 3e
       0.17530723 0.41654983 -0.13654397 0.33102775
000020 68 7e 0c 3c fe 08 bb 3e 43 9b b9 3e ad 8c a4 be
       0.0085750595 0.36530298 0.36251268 -0.32138577
000030 44 74 87 be 98 c8 6d be 70 ca a4 3d bc 94 48 3d
       -0.2645589 -0.23221052 0.080464244 0.04896997
000040 d2 53 b6 be 58 3a 46 be da 50 4e bd 74 2d cd 3d
       -0.35610825 -0.19358194 -0.050370075 0.10018435
000050 a4 f2 23 3e c4 6a cc be bf 6f ad bb fe 0e d9 be
       0.16010529 -0.39925206 -0.005292862 -0.4239425
000060 c0 b1 0a be fd ff 79 bd d9 ff e8 3e 5b ea 63 be
       -0.13544369 -0.061035145 0.45507696 -0.22257368
000070 f7 1f 62 bd e6 26 19 bb 71 7d 30 3d 4a d3 59 be
       -0.055206265 -0.0023369133 0.04308838 -0.21272007
000080 fb 5c 01 be e6 44 82 bd ab 98 70 be 41 35 94 3d
       -0.12633125 -0.063607976 -0.23495738 0.0723672
000090 a2 1b 60 3e b9 45 1b 3e ae 7d 85 3d 66 1f 35 be
       0.21885541 0.15163316 0.06518112 -0.17687759
0000a0 77 39 2f 3c eb 96 3b 3e de 28 40 bd cd 5f 7e be
       0.010694853 0.1831929 -0.046913974 -0.24841233
0000b0 36 ae 81 be 0f 93 91 3d 80 80 ce bd d7 9e 84 3e
       -0.25328225 0.07108127 -0.10083103 0.25902435
0000c0 6a 2d 52 3d 83 4c 72 bd e9 7e 0b 3d ac 81 af 3e
       0.05131284 -0.059155 0.034056578 0.3427862
0000d0 15 be 56 be 56 3a 51 3e af e8 c5 3d 40 5c 93 be
       -0.20970948 0.2043241 0.096635215 -0.2878132
0000e0 20 93 47 be cd 45 4c be 70 d5 83 be ec a0 55 be
       -0.19489717 -0.19948502 -0.25748777 -0.20862168
0000f0 06 45 8a bd 52 9c 3d be 61 e1 fb bd 7d 7a 90 be
       -0.067514464 -0.18516663 -0.12298847 -0.2821845
000100 c6 f0 98 bd d7 8f 91 3d e0 7b ca 3d 9e ac 43 be
       -0.07467799 0.071075134 0.098869085 -0.19108817
000110 60 67 83 3e 1f 35 82 3e 2e ad f6 bc 39 8b 90 3b
       0.25664806 0.25431153 -0.030111875 0.004411128
000120 19 04 68 3e 57 bd 73 3d 7b 88 5f 3e 10 af af bb
       0.22657813 0.05950674 0.21829407 -0.0053614452
000130 2c c2 87 be d4 3e 3e be ff 5a a6 3d ec db a7 3e
       -0.2651533 -0.18578655 0.08122825 0.32784975
000140 1c 84 ad bd 46 bd c3 3d 19 f8 90 bc b4 18 19 bd
       -0.084724635 0.095575854 -0.017696427 -0.037377074
000150 4d 40 25 bd 2a 24 cd bd aa 13 86 3e a7 17 39 bd
       -0.040344525 -0.10016663 0.26186877 -0.045188572
000160 d7 20 12 3d c2 de 80 be 53 58 9f be 7b 55 05 3c
       0.03567585 -0.2516995 -0.31122074 0.008138056
000170 65 25 4f 3e b4 3c 83 3d 99 1e 64 3e 44 f4 2a 3d
       0.20229109 0.064080626 0.22277297 0.041736856
000180 5a a2 a5 be cd 96 b6 be 6e 70 3f be 2b 64 0e be
       -0.32350427 -0.35661927 -0.18695232 -0.13905399
000190 54 fd 7f 3e 65 3f 7e 3d d0 fe d8 bb c0 d5 27 3e
       0.24998981 0.062072176 -0.006622173 0.16390133
0001a0 7a 0c 6a 3e 23 e5 65 be f7 c2 d5 3d a0 33 67 bc
       0.22856322 -0.2245069 0.10437577 -0.014111429
0001b0 7b 80 9a be b6 04 a9 3d 61 5e 55 be d6 14 41 3e
       -0.30176148 0.08252852 -0.20836784 0.18855605
0001c0 a0 ed 47 be 80 c2 50 bd 6f 3b b4 3e 14 87 6b 3e
       -0.1952424 -0.05096674 0.35201594 0.23000747
0001d0 ce 91 4d be 3b 8c f1 bd d4 cc 09 be 12 2b fe bb
       -0.20075151 -0.11794325 -0.13457042 -0.007756599
0001e0 41 49 13 be 84 85 2c 3e ae f0 08 3d 57 cc 03 be
       -0.14383413 0.16847807 0.033432655 -0.12870918
0001f0 0e b7 28 be 00 7c 0c be ff 96 84 be f8 32 2e be
       -0.1647608 -0.13719177 -0.2589645 -0.1701163
000200 28 c0 69 3e 57 15 04 be 84 b1 c9 3d 84 d3 6d 3e
       0.22827208 -0.12898766 0.098483115 0.23225218
000210 03 5f 6f 3d de 6a 75 3d 28 a4 82 be 41 ba 8d bd
       0.05844022 0.05991637 -0.25515866 -0.06920291
000220 b2 be 8e bd 80 53 00 3e 63 51 4a 3d 40 52 83 bd
       -0.06969966 0.12531853 0.049394023 -0.06412172
000230 f5 5d 3b be ab 05 88 3d b9 4f 53 be 8e 55 69 3e
       -0.1829756 0.06641706 -0.2063588 0.22786543
000240 5f e5 58 3d 8e 75 05 3d 98 45 80 3d 60 61 fc 3d
       0.05295312 0.032582812 0.06263274 0.1232326
000250 db 0d 5f 3d f1 45 ef bd 22 6c 51 3b 55 5f 76 bd
       0.054456573 -0.11683262 0.0031955321 -0.06014951
000260 39 dd 05 3d b8 2b a0 3c ae 7a 46 3d 5c f1 10 3e
       0.032681677 0.019552097 0.04845684 0.14154571
000270 4c d3 4d bc e7 52 ee bd f9 27 4d 3e 66 94 68 be
       -0.012562584 -0.11636906 0.2003478 -0.2271286
000280 aa c0 23 be 5b 78 3d be bd d4 51 3d 1c 5e 0a 3e
       -0.15991464 -0.18502943 0.051228274 0.13512462
000290 40 cc bf 3e f4 fd 4a 3e cb 94 ca bd 77 97 db bc
       0.37460518 0.19823438 -0.09891661 -0.026805623
0002a0 b7 4d a7 bd b8 24 2b 3c 80 d1 10 bd 06 8f 55 bd
       -0.0816912 0.010445766 -0.035356045 -0.05213835
0002b0 9b 81 7c bd 75 d6 a8 bd 9c 6d 9b bc 7a 75 80 bc
       -0.06164704 -0.082440294 -0.018973164 -0.015681017
0002c0 f3 5f 27 bd 6c e3 97 3d b4 34 bf bd d7 73 99 3e
       -0.04086299 0.07416424 -0.09336224 0.2997119
0002d0 8e f2 0d 3e 77 10 33 3e 78 da 0c 3e 84 4e 9c 3c
       0.13862059 0.1748675 0.13755214 0.019080408
0002e0 b8 0b 40 3d b1 a7 41 3d 34 81 70 bd 51 99 16 3d
       0.046886176 0.047279064 -0.058716968 0.036767308
0002f0 5f 20 4e be 6a 7a 47 be b8 d8 5c bd 1c ff a5 be
       -0.20129536 -0.19480291 -0.053917617 -0.32421196
000300 d8 66 42 3d 17 5a 3f be 47 3b 2f bd 2b 4e bb 3d
       0.04746136 -0.1868671 -0.04278114 0.09145769
000310 70 44 cb 3c 64 e4 63 3c 71 86 47 bd c3 b5 80 bc
       0.024812907 0.013909433 -0.048712198 -0.01571167
000320 62 72 9b bd 04 ad c3 bd 58 f4 99 bd 54 b4 e7 bd
       -0.07590176 -0.095544845 -0.07517308 -0.11313692
000330 a3 49 63 be 8a c2 b5 3d ff ae 0f bc 8f 7f 03 3d
       -0.22196059 0.08874996 -0.00876975 0.03210407
000340 b9 96 40 3e 37 76 d5 bc ba 29 b1 3c d8 6b ae bd
       0.18807496 -0.026057346 0.021626342 -0.08516663
000350 62 21 2c 3e 61 b8 83 bc a6 5e 7f be 9c 20 99 3d
       0.1680961 -0.01607913 -0.2493845 0.07476923
000360 b8 a1 29 bd 71 2b ca bb 37 e8 98 bd 4b 6e a2 3d
       -0.041413993 -0.0061697294 -0.074661665 0.07931193
000370 31 f2 ad 3c 26 ff fc 3c 77 a4 42 3b bd b0 22 bc
       0.02123365 0.030883383 0.002970008 -0.009929833
000380 9c 39 ad bc a1 c2 a8 3d 26 ac 13 3e 5e c7 f0 3d
       -0.021145634 0.082402475 0.14421138 0.11756776
000390 b8 1a 59 3e a3 6e a9 3d 8e 5d 8f 3d 9a 5a 64 bd
       0.21201599 0.082730554 0.07000266 -0.055750467
0003a0 aa 1e 67 be 75 12 e9 3d 31 e5 ee 3d 25 e1 2c 3d
       -0.22570291 0.113804735 0.116648085 0.042206902
0003b0 dd d9 2f bd f7 fe dc bd 94 b2 c2 3d a1 a7 c4 3c
       -0.04293238 -0.10790818 0.09506717 0.024005713
0003c0 0a 44 29 3e 6f cf 2a 3e 42 d8 64 be f4 0b 8c 3e
       0.16529861 0.16680692 -0.22348121 0.2735287
0003d0 31 66 23 3e cb d7 e7 3d 4e 52 e6 3d 28 7a b4 bd
       0.15956952 0.11320456 0.11246167 -0.08812362
0003e0 c6 26 ad 3e ed c1 35 3c dc 0a 8c 3d 44 6f de bd
       0.33818644 0.011093599 0.06838009 -0.10861066
0003f0 1f 15 49 bd 96 47 01 3e ad 75 c0 3d ee b5 1d be
       -0.04909241 0.12624964 0.09397445 -0.15401432

lstm_model.lstm.weight_hh_l1 f4 [256, 64]
000000 e1 e1 29 be 8d 59 de bd 2a 19 19 be 81 e3 c7 bc
       -0.16590072 -0.10856924 -0.14951006 -0.024400475
000010 11 c5 7a bd 6a 2f 74 3d a5 65 e2 bd 41 b3 7c 3d
       -0.061223093 0.05961553 -0.110545434 0.061694387
000020 24 f4 f1 3d 33 af 81 3c 9a bf 3a be 14 b1 1d 39
       0.11814144 0.015830612 -0.18237153 0.00015038654
000030 a5 87 8a 3e 96 b4 27 3d d0 fd 1d 3e 2c 22 dc 3d
       0.27056614 0.040943705 0.15428853 0.10748705
000040 2b ea e4 bd d3 2a 85 3d b0 76 8e 3e c4 11 fa 3d
       -0.111774765 0.06502309 0.27824926 0.1221042
000050 96 4d 49 be 92 8d 81 be f1 10 f4 3d 46 56 65 be
       -0.19658503 -0.25303322 0.11917294 -0.22396192
000060 77 c8 60 3e 9f 7c 72 be 5a 2e ca 3d f3 4d 40 3e
       0.21951471 -0.23680352 0.09872122 0.18779735
000070 9d 32 4f bc b6 db 03 3e 9e de 88 be c9 42 99 bd
       -0.0126463445 0.12876782 -0.26732343 -0.074834414
000080 e7 f0 d3 bc ba 94 47 3e 1c 7f 13 3e 8c b2 a4 3e
       -0.025871707 0.19490328 0.14403957 0.3216747
000090 5a c0 20 be bc 85 1b 3e a7 33 8a 3e aa 93 16 be
       -0.15698376 0.15187734 0.26992533 -0.14704767
0000a0 0c 8a 9e 3e 0d 3b 06 3d 37 dc 8b bd 49 68 90 3e
       0.30964696 0.03277116 -0.06829112 0.28204563
0000b0 2d 50 a3 3d e5 31 ac bd 3f 2d 50 3e 40 ea 3c be
       0.07974277 -0.08407954 0.2032976 -0.18448734
0000c0 34 34 4d 3e 7f 92 38 3e 6e 2e 73 bd fd 45 5a 3e
       0.20039445 0.18024634 -0.05937045 0.21315761
0000d0 e9 60 99 3d 24 e2 fa 3d f8 df 7b be e7 de a5 3d
       0.07489187 0.12250164 -0.24597156 0.08099156
0000e0 1e 85 60 3e f3 d9 14 3d 8b 98 a7 3d 69 76 c2 3a
       0.2192578 0.036340665 0.08183392 0.0014836314
0000f0 c1 2e 13 bc 03 65 9c 3e a0 7d 9c be f6 2c ef bc
       -0.008983315 0.30545816 -0.30564594 -0.029196244
000100 60 04 e2 3d 3f f5 78 3e f6 0c a9 bd 10 6e c3 bb
       0.11035991 0.24312304 -0.08254425 -0.005964048
000110 a8 f8 25 3d d8 28 0a 3e 1d 80 4f 3d 12 f2 0f 3e
       0.04052034 0.13492143 0.050659288 0.14057186
000120 6e 5f 1c be 3f 40 07 3d ab b0 40 3e 75 18 f0 bb
       -0.15270779 0.033020254 0.18817393 -0.0073271343
000130 64 90 bc bd 4d 34 b3 bd 40 df 79 3d eb 9d 9e bc
       -0.09207228 -0.0875021 0.061003923 -0.01936241
000140 d1 77 8a be b0 5c c1 3d aa 15 90 bb f4 c4 43 3e
       -0.27044538 0.09441507 -0.004397114 0.191181
000150 bb 32 8c be a8 4c 6c 3d 07 05 2f 3e 3f ec 8c 3c
       -0.27382454 0.057690293 0.17091762 0.017202495
000160 af 5c 19 3e e3 da f9 bd e5 de 73 be 1e 8a 08 be
       0.14976762 -0.121999525 -0.23815496 -0.13333938
000170 17 0b c4 be db 09 0e 3e 6b ed ac 3d 1c 7f 8e 3d
       -0.3828971 0.13870947 0.084437214 0.06957838
000180 dd 36 84 be 35 4e 8b 3d df c2 b4 3c b7 fb 3c 3d
       -0.25823107 0.06802026 0.022065578 0.04613849
000190 6e 97 d3 3e 66 4d 1e 3d c4 5e 1e be 40 07 c5 3d
       0.4132647 0.03864803 -0.15465838 0.096205235
0001a0 1e 62 f2 3d 8d 22 b0 3e 73 63 1b 3d 73 50 25 3e
       0.118351206 0.3440136 0.03793664 0.1614397
0001b0 82 fc b2 bc cd 4d 06 bd 45 12 9b 3d 60 a4 31 be
       -0.02184892 -0.03278904 0.07571844 -0.1734786
0001c0 ae 90 0c 3d d5 3d 41 3e 39 71 de 3d 33 4e 64 be
       0.034317665 0.18871243 0.10861439 -0.22295456
0001d0 08 e2 a8 3c 47 61 08 3d e9 60 5d be 52 f0 05 be
       0.020615593 0.033295896 -0.21619 -0.13079956
0001e0 9e 28 22 be e2 61 30 be b0 ff 83 3d a8 c0 68 bd
       -0.15835807 -0.1722484 0.06445253 -0.056824356
0001f0 8e 8c 88 3d 39 fc d5 bc 7e 44 16 be f2 a0 67 3b
       0.06667434 -0.026121246 -0.14674565 0.0035343734
000200 9f 34 8e 3d 59 ac 00 3e 31 a9 47 bd 5b 2f 2a be
       0.069436304 0.12565745 -0.048745338 -0.16619627
000210 01 11 c6 bc 19 27 a9 bd c3 98 af be 99 f5 47 be
       -0.02417803 -0.082594104 -0.34296235 -0.19527282
000220 91 52 1f 3d 10 e9 73 bc c3 3c 11 3e 4b af e6 3d
       0.0388971 -0.014887109 0.14183335 0.11263903
000230 8b 5c ec bc f8 6d cf bd 14 5e 4e 3d ff ad 62 be
       -0.028852722 -0.10128397 0.05038269 -0.22136687
000240 c3 4a 79 be c7 61 13 be 3d 23 70 3d ab 94 08 be
       -0.24344926 -0.14392768 0.058627356 -0.13337962
000250 cf 0d 6a bd 69 0b 3f bd 59 54 7c 3e 69 ed 6e be
       -0.057142075 -0.04664174 0.24641551 -0.23332752
000260 f5 a0 01 3e 39 64 07 be ab 18 84 bc 83 ec 5e bd
       0.12659056 -0.13221826 -0.016125044 -0.054424774
000270 2a df 0d 3c b5 67 08 be fe 9a 5e 3d 95 f7 0b 3c
       0.0086591635 -0.13320811 0.05434703 0.008542915
000280 f0 58 69 3c 5d b7 87 3e 2c fb 51 3d 53 b5 e1 3d
       0.014242396 0.26507083 0.051264927 0.11020913
000290 dd a0 80 3d 84 20 00 3d 00 a4 8f bd e5 2b 48 bd
       0.06280682 0.03128101 -0.070137024 -0.048869986
0002a0 10 7b fc bc 26 2a f1 3c 39 e4 19 3c d8 91 44 3e
       -0.0308204 0.029439043 0.009392791 0.1919626
0002b0 29 ce fb bb 75 0d 50 bd ba 46 10 be ad c4 17 be
       -0.0076844883 -0.050794084 -0.1408948 -0.1482112
0002c0 ba 0c cc 3d 49 24 87 3e 2e aa b6 3d 5a 4b 70 3c
       0.09963365 0.2639487 0.08919178 0.014666403
0002d0 00 2c 14 3d 18 7b ea bd 64 f3 6e 3c 9a cf 8d 3d
       0.036174774 -0.114492595 0.014584396 0.069243625
0002e0 61 ca b7 3b c6 05 4d bd a2 df 27 3e a8 5b 72 bd
       0.0056088422 -0.050054334 0.16393903 -0.05916944
0002f0 3c 36 e2 3c 53 8d 98 3d 91 13 d0 3d 59 59 73 3d
       0.027613752 0.074488305 0.10159982 0.05941138
000300 85 d7 b5 bc 03 df 65 3d d6 04 83 bd 7c 46 69 bd
       -0.022197494 0.056120884 -0.06397407 -0.056951985
000310 12 9e 0f 3e e1 9a 85 bc ad 95 ae be 44 22 34 bc
       0.14025143 -0.016309204 -0.3409857 -0.010994498
000320 99 b8 9b 3d cb ee 83 bd 44 55 c8 3d 9b ba 51 bc
       0.076035686 -0.064420305 0.09781888 -0.012800838
000330 7f 93 40 3c 3c e8 72 3e e8 52 04 3e 29 b1 2d 3d
       0.011753916 0.23721403 0.12922251 0.04240528
000340 79 5b fc bd 6e c9 78 3c 77 73 11 3d 0b 9e bf bc
       -0.123221345 0.015184743 0.035510506 -0.02339079
000350 c2 83 60 be 59 71 d9 bd dc 83 9f 3e 5b 62 8d be
       -0.21925262 -0.106173225 0.31155288 -0.27614102
000360 d3 52 98 be 3b 86 28 bd c7 06 29 be 99 cc 0d 3e
       -0.2975069 -0.041143637 -0.16506492 0.13847579
000370 40 b7 fc 3d cb 59 f9 3d 01 b4 94 be 55 eb 7f be
       0.1233964 0.1217533 -0.29043582 -0.24992116
000380 ca ee b0 3d b7 d2 dd 3d 8e 7a 3a 3e a2 c8 36 3e
       0.086392954 0.10831206 0.18210813 0.17849973
000390 7d 4f 07 3e 7c 2d 28 bd 32 d9 d0 bd 6b fe b9 3c
       0.13213916 -0.041059002 -0.10197677 0.022704324
0003a0 38 8d 29 3d 44 44 0b 3e 55 0c a0 3b 76 43 e9 3d
       0.041394442 0.1360026 0.0048842826 0.1138982
0003b0 98 0e 83 be 2c 25 df bd df bd b4 bd 48 00 75 be
       -0.25597072 -0.10895762 -0.088252775 -0.23925889
0003c0 a2 e6 37 3d 26 c1 c0 3e ec 96 34 be a2 b9 8d bd
       0.044897683 0.3764736 -0.17635697 -0.06920172
0003d0 e2 9f 24 3e e4 4e 87 bc fc ba 20 3d 44 49 83 3e
       0.16076615 -0.01651711 0.039240822 0.25641835
0003e0 fd e3 06 3e 96 2d 42 3e 8f df 6e 3e 19 3d 5a 3e
       0.13172908 0.18962702 0.23327468 0.2131237
0003f0 b6 a5 7e 3e bc d6 49 bc c9 28 d2 bd 73 d2 8f 3d
       0.24867901 -0.012319263 -0.102616854 0.07022562

lstm_model.lstm.bias_ih_l1 f4 [256]
000000 75 27 10 3e d5 d1 91 bd 83 7b 7a 3d cb 42 e3 3d
       0.14077552 -0.071201004 0.061152946 0.11096724
000010 66 d6 d7 3d 1f 86 0d 3d ff 71 11 3e 78 97 71 3c
       0.1053894 0.034551736 0.14203642 0.014745586
000020 64 e4 db 3d a5 c2 c6 3d 70 be 9d bd ad 24 9e 3d
       0.107369214 0.09705094 -0.07702339 0.07721839
000030 ab 60 d2 3d 61 0b 99 3d 41 bc 91 bd 7b 84 da 3d
       0.10272344 0.074728735 -0.07115985 0.106698
000040 9f 4f 2f be 59 46 aa 3d d1 61 c1 3d 6a 6a 1a bc
       -0.17120217 0.08314199 0.09442485 -0.009424785
000050 f9 4b b5 3d 50 9b c1 3d c5 ef c5 3d 19 e1 d4 3d
       0.08852381 0.09453452 0.09664873 0.103944965
000060 9f 4d 54 3d 47 17 0f 3e 20 c9 66 3d b9 b1 eb 3d
       0.051831838 0.13973723 0.05634415 0.11508507
000070 4c 5a 7a bd d7 f7 20 3e bc 4a 37 3e a1 a2 02 3e
       -0.06112127 0.15719543 0.17899603 0.1275735
000080 46 95 30 be 8b 73 6e 3e 51 fe 36 3e 9d d7 72 3d
       -0.17244443 0.23286264 0.17870452 0.059287656
000090 cd 42 5d 3d eb e1 93 3d aa f6 2a 3d 12 16 07 3e
       0.054018784 0.07220825 0.041739143 0.13192013
0000a0 25 a8 ae 3d 36 52 a3 3d 5e ca 23 3e dd 82 03 3e
       0.08528165 0.07974665 0.15995166 0.12842889
0000b0 85 7e e0 3d 4a 73 d0 3d 7b 7d ee 3d be 61 ad 3d
       0.10961632 0.1017824 0.11645027 0.084659085
0000c0 34 ac 0e 3e 95 52 1d 3e d4 35 27 3e f0 28 8d 3d
       0.13932878 0.15363534 0.16329128 0.06892574
0000d0 14 15 62 3d 77 aa f8 bb a4 2d 1f bd a7 a6 1d 3e
       0.055195883 -0.0075886804 -0.038861886 0.15395604
0000e0 5d c6 c3 3d de ad c0 bc 3f 04 fd 3d a6 0b ac 3d
       0.09559319 -0.023520406 0.123543255 0.08400659
0000f0 34 21 39 3e b3 cc 04 3e f8 9c 0b 3e 99 b8 ad 3d
       0.18079072 0.12968712 0.13634098 0.08482475
000100 2d fc 13 bd 71 17 7a be 08 05 00 bd 8f fd cb bd
       -0.036129165 -0.24423005 -0.0312548 -0.09960472
000110 d3 51 a8 bd e6 56 f7 bc 13 77 49 be 4e 83 62 bd
       -0.08218732 -0.030192804 -0.1967433 -0.055301003
000120 58 e7 3a bd 56 cf a9 bd d2 b1 8a be 78 79 6d bd
       -0.045630783 -0.08291499 -0.2708879 -0.05797717
000130 64 f5 20 bd 91 08 f0 bd 20 d1 e4 bd a8 0f 6e bb
       -0.039296523 -0.11720384 -0.111727 -0.003632525
000140 80 4f 6d be 2d bd 57 bd aa 60 31 bd 4c 1a 74 3c
       -0.23174858 -0.052670646 -0.043305077 0.014898848
000150 91 5a 8b bd 79 b6 18 be 4f 25 e7 bd b6 9d 2e be
       -0.068043835 -0.14913358 -0.11286413 -0.1705235
000160 bb a3 3e bd bf 32 82 bd a1 94 47 bd 87 01 f0 bd
       -0.046542864 -0.06357335 -0.048725728 -0.11719041
000170 06 a6 2e be 28 05 b3 bd a5 bc 80 bd 16 36 9b bd
       -0.1705552 -0.08741218 -0.06285981 -0.075786754
000180 99 f8 80 be e6 86 bb bd ce 7e e0 bd ef 83 2f bd
       -0.25189665 -0.09156589 -0.10961686 -0.04285043
000190 dc de 4b be 05 f8 97 bd 0d 06 0b be e5 46 60 bd
       -0.19909233 -0.07420353 -0.13576527 -0.05475511
0001a0 ea b7 06 be 55 80 b1 bd 25 c9 b0 bd 92 d2 bb bd
       -0.13156095 -0.086670555 -0.08632115 -0.091710225
0001b0 39 db 84 bd 7a 4f a6 bd 02 c8 b0 ba d3 d9 91 3b
       -0.06487126 -0.08120628 -0.0013487341 0.0044510155
0001c0 c7 f8 70 bd 45 c8 d8 bd 59 c4 44 be 62 e2 0d be
       -0.058831003 -0.105850734 -0.19215526 -0.1385589
0001d0 f4 48 9a bd f0 2f 0c be b9 b0 63 bc 54 ac 99 bd
       -0.07533446 -0.13690162 -0.013897114 -0.07503572
0001e0 91 a6 d0 bd 7b f8 fd bd 44 98 24 be f5 23 5f bd
       -0.1018802 -0.124009095 -0.1607371 -0.05447765
0001f0 e5 59 01 be 67 66 04 be e8 a6 a8 bd b1 ce b0 bd
       -0.12631948 -0.12929688 -0.0823496 -0.08633173
000200 b2 16 67 bc 5f 6d f7 3a 09 bc 93 bb 90 3e 04 bc
       -0.014104532 0.00188772 -0.0045084995 -0.008071557
000210 32 f2 2b 3c a1 5a 9a ba 94 b3 9d bb 1e bc 2f 3c
       0.010494756 -0.0011776277 -0.004812667 0.010726003
000220 05 c1 09 bc 6c 72 8b ba 45 90 20 3b 24 79 a5 3c
       -0.008407836 -0.0010638959 0.0024500054 0.020199366
000230 53 84 b6 ba 1a 6a 09 ba 4e f1 ab 3b 2f 53 39 3c
       -0.0013924934 -0.00052419456 0.0052472716 0.011311336
000240 64 ee 4a 3a b3 a4 72 3a 73 a3 9e bb c4 e1 76 3c
       0.00077412114 0.00092561095 -0.004841262 0.015068475
000250 c8 94 d6 3b 97 93 36 ba eb ed 12 bc bf 38 b3 3a
       0.006548498 -0.00069647416 -0.008967857 0.0013673528
000260 ab 0a 8f 3c 3e d3 24 bc e0 70 13 3a 0a a9 4a bc
       0.017461142 -0.01006013 0.00056244247 -0.012369404
000270 df 4d 8d 3b d2 89 3e ba 72 23 43 3b 04 9a 57 bc
       0.0043122615 -0.00072684616 0.0029775766 -0.013159279
000280 c8 d3 85 ba 1f 04 e7 bb 1f a6 28 3b 5a 3c f6 bb
       -0.001021021 -0.007050052 0.0025733782 -0.0075145187
000290 57 f2 18 bc 77 b8 61 bc 15 aa 59 bb be 28 4e 3c
       -0.009335122 -0.01377689 -0.003321295 0.012582956
0002a0 36 34 2e bc 04 dc 92 3c cb 18 8e 3b 7a c2 4e 3b
       -0.010632565 0.017927177 0.0043364516 0.0031549023
0002b0 7b 46 88 bb cc a7 9d 3c d7 9f 12 bc 98 8d 7a 37
       -0.0041587926 0.01924505 -0.008949242 1.4934129e-05
0002c0 d5 94 a0 3c 1f 86 69 bc b0 a5 7e bc 4a 32 83 ba
       0.019602219 -0.014253168 -0.015542433 -0.0010009494
0002d0 be f1 7b 3b fd 09 bd 3b 4f bb f4 b9 40 f5 14 bb
       0.003844365 0.005769013 -0.00046678862 -0.0022729188
0002e0 d7 2d 16 bc b7 be e3 b8 2f b4 da 3b 04 e8 73 3a
       -0.0091662025 -0.00010859727 0.0066743116 0.00093042874
0002f0 c1 7a e6 ba 41 45 05 bc 66 1b c6 3b 66 eb d0 ba
       -0.0017584191 -0.008134187 0.0060457466 -0.0015939295
000300 9d 4c 39 3e 6d 9c d8 bd bf a8 74 3d 29 a1 e4 3d
       0.18095632 -0.10576711 0.05973124 0.11163551
000310 73 a1 d0 3d b1 cf dd 3c 35 82 06 3e aa 0e c0 3c
       0.10187044 0.027076574 0.13135608 0.023444492
000320 4a 9e e2 3d 60 fa 00 3e b2 97 d9 bd 5b a9 97 3d
       0.110653475 0.1259551 -0.10624637 0.07405349
000330 f6 6b ec 3d 82 17 b5 3d 2b ed 70 bd 45 73 cf 3d
       0.115440294 0.088423744 -0.05881993 0.10129408
000340 4c a8 32 be 3e 31 95 3d 5e 87 b1 3d 4e 12 a2 bb
       -0.17447013 0.07284783 0.08668397 -0.0049460297
000350 ef aa ae 3d 6d b7 c6 3d e1 ac 8d 3d 86 ba b5 3d
       0.08528697 0.097029544 0.0691774 0.08873467
000360 1b e3 e8 3c b0 62 15 3e 16 a6 5b 3d 7e df 01 3e
       0.028428605 0.14588428 0.05362519 0.12682912
000370 f3 48 8d bd 5c b7 26 3e 7e ef 41 3e 9e 80 0b 3e
       -0.068986796 0.16280884 0.18939015 0.13623282
000380 45 45 1d be bc 34 81 3e 96 9e 43 3e d7 73 91 3d
       -0.15358455 0.25235546 0.19103464 0.07102173
000390 8a e7 99 3c 6d ed 84 3d a9 d2 31 3d 14 0e 13 3e
       0.018787164 0.06490598 0.04341379 0.14360839
0003a0 03 c3 80 3d 0b 0d a1 3d 5b d0 23 3e 4d 4c 0b 3e
       0.062871955 0.07863816 0.1599745 0.13603325
0003b0 0c ea e7 3d e5 2c de 3d 4d bd ea 3d ba 4c c8 3d
       0.11323938 0.10848407 0.114618875 0.097802594
0003c0 6e 26 13 3e 2e 9d 1c 3e 1c 5e 29 3e 55 2b 50 3d
       0.14370129 0.15294334 0.16539806 0.050822575
0003d0 57 ae 49 3d 30 31 1e bc 58 c9 68 bd 08 f0 02 3e
       0.04923853 -0.009655282 -0.05683264 0.12786877
0003e0 2c b4 cc 3d 07 88 02 bd fd 47 eb 3d a9 39 d3 3d
       0.099953026 -0.031868007 0.1148834 0.10313732
0003f0 97 0e 33 3e 67 ec fa 3d 99 3c 10 3e 59 e8 b9 3d
       0.17486034 0.122521214 0.14085616 0.0907752
