demo_LSTM_preAD_Risk_v1_2b/output/LSTM_determ_res_mono_risk_edcf_optuna.pt (torch, 235994 bytes, 51 tensors)

imputation_module.deep.layers.0.weight f4 [64, 4]
000000 64 47 94 3e cc cf 62 be b8 55 85 3e 67 62 1e be
       0.28960717 -0.2214958 0.2604196 -0.15467225
000010 8d b0 44 be 14 19 62 bd 62 eb 01 3e 7c e1 ef 3d
       -0.19207974 -0.055199698 0.12687448 0.117129296
000020 b4 df 7d be a1 90 64 3d 57 21 f5 bd e4 d3 0b 3e
       -0.24792367 0.05580199 -0.1196925 0.13655049
000030 64 0c 46 3e 4a 5a 3a bc 1b 89 df 3a 86 01 c2 3d
       0.19340664 -0.011374066 0.001705441 0.09472947
000040 f4 09 19 3e cb 8b 2f 3d 1c e6 10 be 57 65 a4 3d
       0.14945203 0.042857926 -0.1415028 0.080271415
000050 cf 4a 3e 3e c6 dc 4e be cc 79 db 3b 79 de 4c 3e
       0.18583225 -0.20201406 0.006697869 0.20006742
000060 c8 f7 08 bd cc 26 68 be 7c 1c 48 3e 51 42 2d 3e
       -0.033439428 -0.2267105 0.19542116 0.16919829
000070 7a 59 74 3e eb 52 ec 3d 63 f1 16 be 28 aa 36 3d
       0.23862258 0.11539253 -0.14740519 0.044595867
000080 1f c4 6c be 4a 58 dc bd 19 1f 23 be 00 5f dd bc
       -0.2312169 -0.10759027 -0.15929832 -0.027022839
000090 cb 1e 63 3c a8 85 32 3e 38 61 49 be 0c b0 95 3c
       0.013862322 0.17433798 -0.19665992 0.018272422
0000a0 ff 75 ca bd d4 9e f0 bd 5a fb 80 3e 02 c2 0a be
       -0.09885787 -0.11749044 0.25191766 -0.1355057
0000b0 f7 99 33 3e b7 a1 d2 bd cc 94 d0 bd b9 ff 0a be
       0.17539202 -0.10284751 -0.10184631 -0.13574113
0000c0 83 cb 96 be e9 f7 74 be 5d f7 0d 3d 70 bd 02 3d
       -0.29452142 -0.23922695 0.034659732 0.031918943
0000d0 1f 9d 2c bd 68 e0 7b 3d d5 39 92 3e 20 a8 b8 bd
       -0.04214203 0.061493307 0.28559747 -0.09016442
0000e0 32 3c dd bd 99 d1 e6 bd 88 cf 43 3e 99 f4 29 be
       -0.10802497 -0.11270446 0.19122136 -0.16597213
0000f0 1f 06 38 3c dd 49 83 be f2 13 78 bd 0c 5e 8d 3d
       0.011231928 -0.2564229 -0.060565896 0.06902704
000100 7a 0b 8f be 24 9f 76 3e 34 28 33 3e 5f 7d 1c bc
       -0.27938443 0.24084145 0.17495805 -0.009551375
000110 f2 73 3f 3e 19 60 0a bd 91 04 5c 3e a9 48 14 3e
       0.18696573 -0.033783052 0.21486117 0.14480843
000120 66 46 e6 bd 74 d4 58 be 73 16 1c be af d2 97 3e
       -0.11243896 -0.21174794 -0.15242939 0.29652926
000130 9a 72 2f 3b 88 d5 40 be 5c 2b 58 be d7 07 72 3e
       0.0026771189 -0.18831456 -0.2111029 0.23635803
000140 67 ec ac bd 94 7b 29 be b4 68 62 be 16 56 16 3d
       -0.08443528 -0.16551048 -0.22110254 0.03670319
000150 b0 ed 12 bc a9 b0 ee bb 6e 5d 6b 3e 9f ba 90 be
       -0.008967802 -0.007284243 0.2298486 -0.2826738
000160 c4 24 18 be 68 1a 23 3e 2a 23 9b 3e 34 7b c3 3d
       -0.14857775 0.15928042 0.30300266 0.095449835
000170 c4 48 33 3e 0d 82 59 3b 6c 25 40 bb a2 d7 43 3e
       0.17508227 0.0033189089 -0.002931918 0.19125226
000180 99 07 8a be ec 2f ad 3d 0f 7b 7c 3d cb bf 4f 3d
       -0.26958922 0.08456406 0.061640795 0.050720017
000190 74 e6 00 3e 50 c7 05 be f4 0d 3d 3e f8 4e 3c be
       0.12587911 -0.13064313 0.18462354 -0.18389499
0001a0 16 62 08 be 61 36 ff bd a3 64 9a 3d 5e 58 97 be
       -0.13318667 -0.12461544 0.07538726 -0.29559606
0001b0 36 00 8f 3e f1 ae ca 3c 53 2b 5f bd 69 be 50 be
       0.27929848 0.024741622 -0.054484677 -0.20385136
0001c0 7f 41 7e be 27 58 82 3d 82 89 31 be 7f 8f 0a 3d
       -0.24829672 0.0636447 -0.17337611 0.033828255
0001d0 c1 c3 a9 bd cf 2b a7 be fe 9d 90 3e 57 9e 14 3d
       -0.0828929 -0.3265061 0.28245538 0.036283817
0001e0 99 89 57 3d c8 3b 0f be a2 ad eb 3c 35 ab 85 3e
       0.052621458 -0.13987648 0.028769318 0.26107183
0001f0 fd ae 74 be f2 6e bc bd 48 2b e1 bd 27 5c 1a 3e
       -0.23894878 -0.09200849 -0.10994583 0.15074216
000200 2c 54 68 3e eb 7c 5e b9 38 7f 60 be 07 c7 ca be
       0.22688359 -0.00021218105 -0.2192353 -0.3960497
000210 db e8 b6 bd 61 85 8c 3d eb 13 75 3e 65 57 0f be
       -0.089311324 0.068613775 0.2393338 -0.13998182
000220 a1 cf bc bd 26 ea 3b bc a2 d6 ed bc f3 79 57 3d
       -0.092192896 -0.0114694 -0.029033009 0.052606534
000230 1a aa 62 be b9 ca 55 3e 3f af a8 bd 10 cc 38 be
       -0.22135201 0.20878114 -0.082365505 -0.18046594
000240 00 b4 8c be 7a 29 98 be 03 ba 98 3e ec 89 63 3e
       -0.2748108 -0.29719144 0.29829416 0.22220582
000250 30 97 70 3e 67 21 57 3d 17 40 cb bd 8e 8c 66 be
       0.23495173 0.05252209 -0.099243335 -0.22514555
000260 d7 fa 8b 3e 6d a5 58 be 88 86 b2 3d 9c 7e f1 3d
       0.27339813 -0.21156855 0.08717066 0.11791727
000270 97 0c 1f be 23 a9 ab 3e b9 3c 3a 3e 83 f3 f2 bd
       -0.15532146 0.3352748 0.18187226 -0.118628524
000280 e7 3d 20 bd c4 7f 81 3e 54 4f 97 3e 36 4b 13 be
       -0.039121535 0.2529279 0.2955271 -0.1438416
000290 b8 af 7f 3e 6e 4c 43 be 05 ce 7e 3e 33 49 84 3d
       0.24969375 -0.19072124 0.24883278 0.06459274
0002a0 f3 eb 99 3d 6a bc 5a be b5 6e 91 be 01 64 ff 3d
       0.07515707 -0.21360937 -0.28404775 0.12470246
0002b0 fe 08 5c be 04 ee 85 3e b6 63 94 3e 32 64 40 be
       -0.21487805 0.26158154 0.28982323 -0.18788221
0002c0 37 45 24 3a 6f 9a fa bd d4 78 fa 3d e8 9d d3 bc
       0.00062664173 -0.12236487 0.122300774 -0.025832132
0002d0 55 58 59 3c 27 46 60 be 98 5f b7 3d e5 7b ba 3d
       0.013265689 -0.21901761 0.0895378 0.09105662
0002e0 bd 87 e1 3d 6b c3 1f 3e ca 72 88 be 88 2a 62 3e
       0.11012218 0.1560189 -0.26650077 0.22086537
0002f0 e4 d6 5c 3d 76 5d 33 bd e5 25 0b 3e 8c e0 59 3c
       0.053915873 -0.043790303 0.13588674 0.013298165
000300 ca 9b 84 3d 88 8a 97 be 1e 4c 93 bd 3d f2 dd bd
       0.06475027 -0.29597878 -0.071922526 -0.10837219
000310 75 d1 86 3e aa 8a 26 3e 5b d4 86 be 34 80 6c 3c
       0.26331678 0.16263834 -0.2633389 0.014434863
000320 52 cf 74 be 1b d0 83 be b9 15 0c bc 81 27 8c 3e
       -0.23907211 -0.2574471 -0.008550101 0.2737389
000330 51 f1 6e 3d ee 21 54 3e 67 73 4f 3e 6a df e8 3b
       0.058335606 0.20716068 0.20258866 0.007106711
000340 e4 f3 13 be e9 78 a2 3e 9c c9 e4 bc 05 b2 80 3d
       -0.14448506 0.31732872 -0.027928166 0.062839545
000350 7d 18 1f be 1a f2 c7 bd 79 c3 80 be bd 86 16 be
       -0.15536685 -0.09762974 -0.25149134 -0.14699836
000360 2f 2b 4c bd ab ca 18 3b 45 25 72 3e e4 41 26 be
       -0.04984587 0.002331416 0.2364703 -0.16236073
000370 4b 44 84 3e 7e a9 b4 bd 9c 74 65 be 46 3f ed 3c
       0.25833353 -0.088213906 -0.22407764 0.028960835
000380 bc 1d d4 bb fa 60 74 3d ac 8c 82 3e 79 d3 dd 3d
       -0.006473271 0.059662797 0.2549795 0.10831351
000390 da e2 f0 3d 97 a0 91 be e4 fe 5c be 7a a5 89 3e
       0.117620185 -0.28442833 -0.21581608 0.2688406
0003a0 52 33 46 be f1 d6 10 3d 5c 0a 30 3e cc 1c 8b 3e
       -0.19355515 0.035361234 0.17191452 0.27170408
0003b0 d9 8e 27 be 05 70 1e 3c e2 bf 8c 3e 3b 08 ae bd
       -0.16363086 0.009670262 0.27490145 -0.084976636
0003c0 26 2d 9a 3d 75 44 38 bd 65 23 18 3e ae be 37 be
       0.07528143 -0.04498716 0.14857252 -0.17943832
0003d0 d7 1f 2f 3e 75 bb 99 3e 28 8d 80 bd f3 2b 64 3e
       0.1710199 0.3002583 -0.062769234 0.2228239
0003e0 6b 6e 7d 3e 27 6e 5b be 70 dd 98 3d ee f1 f7 3d
       0.24749152 -0.21428739 0.07464111 0.12106691
0003f0 56 4d 42 3d ea e6 d2 3d c5 f3 8f 3e 98 d1 17 be
       0.047437035 0.102979496 0.2811567 -0.14826047

imputation_module.deep.layers.0.bias f4 [64]
000000 cc 64 83 bc 46 ee f6 3c e7 5f 0a 3d 32 f2 ce bc
       -0.016039275 0.030142915 0.033782866 -0.025261972
000010 2c aa a5 b9 a0 7c 78 3c c5 a8 b5 3c 2b e5 97 bb
       -0.0003159804 0.015166432 0.022175202 -0.0046354732
000020 22 3c a1 3b 06 fd ae 3c 93 8f 64 3d 11 8d 78 be
       0.0049204985 0.021360885 0.055800986 -0.24272563
000030 36 7d 03 3d 8b 0b 0b bc 68 ac 9b 3c 45 72 0a 3d
       0.032101832 -0.008486639 0.019003108 0.033800382
000040 6f 3b 1f bd bc c0 25 bc 87 e5 a6 3c 96 60 9d bb
       -0.03887504 -0.010116752 0.020373119 -0.0048027737
000050 af 44 57 3b f4 e6 96 bd 4c dd 71 3d b2 46 2d bd
       0.0032847335 -0.073682696 0.059048936 -0.04230375
000060 21 c7 b6 bb a9 b6 e7 3b c2 f3 e0 b9 4b 21 4f b9
       -0.0055779372 0.0070713353 -0.00042906223 -0.00019753461
000070 82 53 43 3d cf 33 b1 3c 33 ad 3c bc 72 8a 0c bd
       0.04768706 0.02163115 -0.011515903 -0.03431172
000080 28 6f ec ba 17 32 1f 3d cd 5f 1a 3d 50 8f 2f bd
       -0.0018038498 0.03886613 0.03768902 -0.042861283
000090 6f 9e a0 3d a0 3b 9b be de 44 88 3b 62 97 f9 3c
       0.07842719 -0.30318928 0.0041586002 0.030467693
0000a0 7a 45 0f 3b 63 00 d9 bc 51 71 10 3c 9f 8a 39 bc
       0.002186148 -0.026489442 0.008816079 -0.011324554
0000b0 84 99 8e bb 9f ed 2c 3d 14 f4 69 3c ad ce 10 3c
       -0.0043517966 0.0422188 0.014279384 0.008838338
0000c0 8c bf 16 3d 78 53 90 ba 1f ca 0f 3d de f3 00 bb
       0.036803767 -0.0011011204 0.035104867 -0.0019676606
0000d0 54 fd 80 3d 2d 52 b3 3b f4 56 41 3d 01 90 6d bb
       0.062983185 0.0054724426 0.047202066 -0.0036249163
0000e0 e7 ea b6 bb 42 6b d8 3c a7 d2 01 bd 3f 21 c1 bb
       -0.0055822018 0.026418332 -0.031695034 -0.005893856
0000f0 b4 34 c1 3c 2b 7a 2e 3c e1 70 03 bd b3 42 71 3c
       0.023584701 0.010649244 -0.03209007 0.014725375

imputation_module.deep.layers.2.weight f4 [32, 64]
000000 0f 77 2d be fd 85 81 bd 67 d5 3d be 99 4c 48 3c
       -0.16939948 -0.06324384 -0.18538438 0.012225294
000010 12 86 4f 3e 56 fd 43 3e da b0 e1 3c ba 78 ba 3d
       0.20265988 0.19139609 0.02755015 0.09105058
000020 46 8a 30 be d4 db d1 3d ea f3 1f bd 27 c2 cd bd
       -0.17240247 0.10247007 -0.039050974 -0.10046797
000030 12 23 f1 bb 84 b0 bf bc 3e d7 46 bc bc b7 76 3e
       -0.007358917 -0.023399599 -0.012136279 0.24093527
000040 66 06 ac 3e aa f1 8a 3d 4c 4c 04 be b9 60 38 3e
       0.33598632 0.06784375 -0.1291973 0.18005647
000050 60 95 f8 3b 74 63 7d be 35 09 3b be 15 f6 49 3e
       0.0075861663 -0.2474497 -0.18265231 0.19722779
000060 c4 a3 7a bd 4b ba 33 3e 24 7b cf 3d 79 9e 60 3e
       -0.061191335 0.17551534 0.10130909 0.21935453
000070 f9 5e 89 bd 28 fe 59 be 83 9d 56 3c 62 7c f8 3d
       -0.06707568 -0.21288359 0.013099077 0.12133099
000080 cd 8b a4 3d 06 69 16 3e 46 e0 8b be aa 9b ad 3e
       0.080344774 0.14688501 -0.27319545 0.33907825
000090 c4 8b cb 3d 64 6a c1 3d f7 34 5c 3d 93 7a 55 3e
       0.099387676 0.094441205 0.05376145 0.2084754
0000a0 16 12 7b 3e 49 1c 45 be db 9a 2e 3e 83 e7 f4 3e
       0.24518618 -0.19249071 0.1705126 0.4783288
0000b0 b5 6e 4a 3e 88 45 0f be eb d5 e5 bd 16 40 07 3e
       0.19768794 -0.13991368 -0.11222442 0.1320804
0000c0 20 61 f1 bd a8 7f ce bd 50 4e 53 3d af b4 0c 3d
       -0.11786103 -0.10082942 0.051588356 0.034352
0000d0 b4 61 a3 3d e4 fe 5f 3e 55 8c 29 be b9 7b 9c bd
       0.0797762 0.21874577 -0.16557439 -0.07640786
0000e0 83 68 5e 3e bd 5a e0 bd 21 65 46 be a9 8c 1c 3d
       0.21719556 -0.10954807 -0.19374515 0.03822008
0000f0 f3 49 0b 3e 44 23 c7 bd 76 dc bd 3d d1 07 f1 bd
       0.13602428 -0.09723523 0.09270565 -0.11769069
000100 a1 ec 9a 3e 15 d9 3a be 32 ad 27 be 76 ea 56 3d
       0.3025866 -0.18246873 -0.16374663 0.052469693
000110 ec f0 4b 3e 75 6f 0b be 25 b6 37 3d bf 24 3e 3d
       0.19916123 -0.13616736 0.04485144 0.046421763
000120 93 1b 49 3d 0c 1a 3c 3e 26 16 fe bd 81 55 d3 3c
       0.049098562 0.18369311 -0.12406568 0.025797607
000130 b4 2a 83 be 76 46 99 be c1 61 20 3e 71 2c df bc
       -0.25618517 -0.2993657 0.1566229 -0.027242871
000140 6a 09 e5 3b 4e 56 89 3d 86 e3 b7 3d 3a 2b 03 3e
       0.0069896476 0.067059144 0.089789435 0.12809458
000150 32 1a 51 3e 31 ff 78 3e 21 13 1b be 1a 6d 4e be
       0.20420149 0.24316098 -0.15144016 -0.20158806
000160 c2 44 24 be bc 6c e9 3d 05 dc 7b bb ec cc ee bd
       -0.16041854 0.113976926 -0.0038430702 -0.116601795
000170 78 73 1b 3e 33 df 26 3e b6 28 f2 bd 0a c1 fc bd
       0.15180767 0.16296081 -0.11824171 -0.12341507
000180 68 eb 62 3d 41 34 9b be 59 9c c6 3d 93 f0 45 3e
       0.055400282 -0.30313304 0.0969779 0.19330053
000190 e1 21 a4 be 59 ea 10 be 54 6c 47 be a5 a3 24 be
       -0.32057098 -0.14151897 -0.19474918 -0.1607805
0001a0 49 c2 c9 bd fa ec c7 bc 67 61 c9 bc 6d b6 74 be
       -0.0985151 -0.024404991 -0.024582578 -0.23897715
0001b0 9a d7 88 bd 96 a5 16 3e 5f 9e 39 3e 33 2d 33 be
       -0.06681748 0.14711604 0.1812682 -0.17497711
0001c0 c9 91 32 3e b9 c5 fa 3d dd 4a 01 be cd 4f 58 3e
       0.17438425 0.12244744 -0.12626214 0.21124192
0001d0 c6 76 23 be a3 b3 b1 3d 9b 85 ad bd fa aa ea 3d
       -0.15963277 0.08676841 -0.08472749 0.114583924
0001e0 fa 49 90 3c 8c a0 5d be 7b a7 6a be f5 7c c0 be
       0.0176134 -0.21643275 -0.22915451 -0.37595335
0001f0 0c 2c db 3d 77 b2 49 3d 34 57 12 3e 40 35 5e 3a
       0.10701761 0.049242463 0.14291078 0.0008476563
000200 26 9c 0b 3e 66 1c 77 be 62 9a b6 bd 60 7b c8 bc
       0.13633785 -0.24131927 -0.08916165 -0.024472892
000210 cd 35 3a ba fe 4d 6d 3e ce 4b 84 bd b6 2d 58 be
       -0.0007103354 0.23174283 -0.06459771 -0.21111187
000220 3c 94 47 3e a9 a4 72 be 63 fd de bd ac d4 82 3e
       0.1949014 -0.23695625 -0.108881734 0.2555288
000230 00 a9 ae bd 18 08 b0 be 22 13 92 3e 1b 38 20 3e
       -0.08528328 -0.34381175 0.28530222 0.15646403
000240 f7 09 ba 3d 5a 88 8d be eb f2 2b be 13 50 b6 3d
       0.09083932 -0.2764309 -0.16791885 0.08901992
000250 d5 d9 e9 3c 82 3c 1d 3e fd e6 3c 3e e4 8f 91 3d
       0.028546253 0.15355113 0.1844749 0.07107523
000260 16 c2 8f be df 71 6a 3e ee f5 13 3a 9a 1e d4 3d
       -0.28077763 0.22895001 0.00056442514 0.10357399
000270 15 da 23 be e1 3e 06 bd 09 eb 87 be ea f7 c2 bd
       -0.1600116 -0.03277481 -0.26546505 -0.09519942
000280 4e 7b 86 3e 95 d9 c8 be dc 06 70 3e fc e4 67 be
       0.2626595 -0.39228502 0.23440117 -0.22645944
000290 df 39 13 bf 57 2b 42 3e df 44 ef 3d 14 e3 07 be
       -0.5751018 0.18961845 0.11683058 -0.13270217
0002a0 db e4 3e be 8b f6 44 3e 9b 12 2b be 65 06 0a be
       -0.18641989 0.19234674 -0.16706316 -0.13479002
0002b0 52 7c 0f be e7 f0 97 3d 83 b2 58 3e a0 fb 0e 3e
       -0.14012268 0.07418995 0.21161847 0.13963175
0002c0 e6 e1 a7 3d fb 70 08 3d 75 0c 03 bd 97 d7 e0 3e
       0.081973836 0.03331087 -0.0319943 0.43914482
0002d0 63 e6 87 3e ed 4b aa 3d 03 af c7 be 73 09 a9 bd
       0.2654296 0.08315263 -0.3900071 -0.082537554
0002e0 bf 46 e4 be e1 d2 fc bd eb 72 db 3d 0c 87 d1 be
       -0.44585225 -0.123449095 0.10715278 -0.40923345
0002f0 3a 11 d8 bb 25 64 37 be f3 4e 94 3d 71 b4 85 bd
       -0.0065938504 -0.17909296 0.07241621 -0.06528557
000300 49 72 44 3e 70 a0 8b 3e 0a ab 22 3c 9f eb 6e be
       0.19184221 0.27270842 0.009928474 -0.2333207
000310 8e 4f 5c be 84 95 cb bc 64 47 06 3e 72 1c bc be
       -0.21514723 -0.024851568 0.13113171 -0.36740452
000320 c2 67 01 be 8e f1 98 3e 8d d6 0b 3e 5d 06 3d 3e
       -0.12637237 0.29871792 0.13656063 0.18459459
000330 9f fe bf 3d 9f f8 41 be 9a 60 96 bd 74 06 0d be
       0.09374737 -0.18942498 -0.07342644 -0.13771993
000340 25 3e 06 be 26 87 4b 3e 62 70 91 bd f2 24 aa bd
       -0.13109644 0.19875774 -0.071015134 -0.08307828
000350 46 d7 b6 be 91 29 00 3e 4a c4 7d 3e f7 e9 00 bd
       -0.35711116 0.12515856 0.2478191 -0.031473126
000360 1a 30 cd bd 0c 49 de bd fc 68 2e 3e f3 01 a7 be
       -0.1001894 -0.10853776 0.17032236 -0.32618675
000370 a3 4d ea 3d e2 9e 18 3d 30 2b 15 3e fe 5a aa bd
       0.11440589 0.037260897 0.14567256 -0.08318137
000380 1a 0a e6 bc 43 d4 45 3e 7d 9a e0 bd 6c ed be bd
       -0.028080989 0.19319253 -0.10966966 -0.093226284
000390 7f ac 92 3e 62 1e 90 3e d9 93 86 bd fa d4 ba bd
       0.2864723 0.2814818 -0.065711685 -0.09122653
0003a0 ae af e3 bc 40 03 99 3d 6c 7d 8a 3e d6 39 d6 bd
       -0.027793732 0.07471323 0.27048814 -0.1046025
0003b0 5a e7 fc 3d 1a a8 10 3e e2 6b b4 3d 8d 17 a3 bc
       0.12348814 0.14126626 0.088096395 -0.01990869
0003c0 33 08 55 3d 6f b0 be be cd e1 c1 bd 9b f2 35 be
       0.052009773 -0.37243983 -0.09466896 -0.17768328
0003d0 d7 dd 54 3e 3e 38 53 be 0c 70 99 3e f5 cb e5 bd
       0.2078775 -0.20626923 0.29968297 -0.11220542
0003e0 13 e6 d7 3d 3f 7b 24 3e 1a b9 4e 3e 1e c8 fe bd
       0.1054193 0.1606264 0.20187798 -0.12440513
0003f0 24 6d 73 bc d4 d2 d1 3d 1f 96 06 3d 8c 59 4e bd
       -0.014857564 0.102452904 0.03285801 -0.050378367

imputation_module.deep.layers.2.bias f4 [32]
000000 4a 26 24 3c d9 0c 5d be b8 59 72 be 26 bb 49 3d
       0.010018894 -0.21586932 -0.23667037 0.049250744
000010 2a d1 41 3d 28 ee c4 3c 11 eb 70 bc 70 5b 87 3d
       0.047318615 0.024039343 -0.014704482 0.06609237
000020 df 0e 5f bb 87 14 70 3c f8 37 4d 3d 9a c4 ba 3a
       -0.0034035963 0.014653332 0.050102204 0.0014249266
000030 c5 b0 9c 3c 13 af 9b ba a7 a2 ea 3c 97 00 83 bd
       0.019127259 -0.0011877738 0.028642012 -0.06396597
000040 c5 1b 4d 3d af fb be 3c 18 66 5e 3d 1a 7f f4 bc
       0.05007531 0.023313371 0.054296583 -0.029845763
000050 e0 a9 7a 3c 4c 76 8b bc bc 5f fd 3c b4 21 55 bc
       0.01529929 -0.017024182 0.030929439 -0.013008524
000060 36 23 95 3b 4a 2d 84 bc ec fc 98 bc 4e bc 28 3d
       0.0045513166 -0.016134877 -0.01867529 0.041195206
000070 94 55 be 3c 2e 15 81 3b 59 26 6b 3c 72 1e 51 bc
       0.023234166 0.0039392924 0.0143524045 -0.012763606

imputation_module.deep.layers.4.weight f4 [4, 32]
000000 91 35 1f be 06 ff ce bc d3 28 a7 3c bb 05 15 3d
       -0.15547778 -0.025268089 0.020405209 0.036382418
000010 89 c0 e6 bc e9 78 bc 3e e0 f4 ff bd dd 60 66 be
       -0.02816798 0.36810997 -0.12497878 -0.22497888
000020 d4 1b c5 3e 8c 59 2c be ec 4c ab bd 0d 0a 12 3e
       0.38497794 -0.16831034 -0.08364281 0.14261647
000030 10 95 db be e9 bc a0 3e c0 71 c2 be 5c dd 9a 3e
       -0.42887163 0.31394127 -0.3797741 0.3024701
000040 98 bb 43 be 0a 34 a5 be 4e 9b 6e 3e 47 23 bc 3b
       -0.1911453 -0.32266265 0.23301432 0.00574151
000050 87 26 c2 3e 82 5f 75 be 3f 4d 81 3e 2b 31 21 3e
       0.3792002 -0.23962215 0.25254247 0.15741412
000060 aa e3 c6 3e 58 e3 10 3d 49 f4 50 3e 3e 4b 26 bd
       0.3884557 0.035373062 0.20405687 -0.0405991
000070 cc d2 0c be da c9 ca bd a3 76 5e be 53 5b ab bd
       -0.13752288 -0.099017814 -0.21724944 -0.08367028
000080 0c 5f d3 be db cf b6 3e d9 ad c9 3e e6 d2 8e 3e
       -0.41283453 0.35705456 0.39390448 0.27895278
000090 28 22 6c bd f7 7d d3 3e d5 20 10 3e 53 a6 fd 3d
       -0.05764976 0.4130704 0.14075024 0.123852395
0000a0 43 92 d2 3e 57 d5 c2 3e 49 9b c8 bd 0d 7f 83 3d
       0.41127214 0.3805339 -0.09795243 0.064207174
0000b0 33 fd 09 be 28 da ac be 15 0e 0a bc b6 36 6c 3e
       -0.13475494 -0.3376019 -0.008426209 0.23067746
0000c0 fe ca 4d 3e a5 0b 7c be f7 f8 b5 3e 86 db ae be
       0.20096967 -0.24613817 0.35541508 -0.34151858
0000d0 c8 80 ef 3d c0 61 c0 be 7c 44 d0 3e b8 c2 01 3e
       0.11694485 -0.37574577 0.4067725 0.12671936
0000e0 29 a5 e3 3d e6 d3 0b 3e ab 17 9c be b5 08 7a 3d
       0.11115486 0.13655052 -0.30486807 0.06104346
0000f0 3e 00 a3 3e 4f ed 1c 3e 9b ad c6 3e 45 46 2a 3e
       0.31836122 0.15324901 0.38804325 0.16628368
000100 d6 1f cd 3e 8a 08 bd 3d 2c aa c5 be 3a 09 d5 be
       0.4006335 0.09230144 -0.38606393 -0.41608602
000110 33 67 9f be 89 8c 8c 3e 1d b4 6b 3e d4 51 fe bd
       -0.31133422 0.2745097 0.23017927 -0.12417951
000120 88 fd a7 3e dd 2e 3a 3e 62 5a c6 be b1 48 95 3d
       0.32810616 0.1818194 -0.38740832 0.072892554
000130 9c 8b 9a bd b7 43 7a 3e 51 a7 0f be 13 10 d6 bd
       -0.075461596 0.24439894 -0.1402867 -0.10452285
000140 0c 46 34 be ce 58 cd be 2f ab bb be 73 d6 04 3e
       -0.17604846 -0.40106815 -0.3665404 0.12972431
000150 fe 53 c7 be 84 d3 0a be e4 97 b5 bd 2f 50 85 3e
       -0.38931268 -0.1355725 -0.088668615 0.26037738
000160 8b f7 e7 39 b3 69 bc 3e e8 84 c5 3e 71 17 a8 be
       0.00044244187 0.36799392 0.38577962 -0.32830384
000170 b7 ce c2 3e 4f 41 90 3e bd 7e 7a 3e 17 dd c3 3e
       0.38048336 0.28174827 0.2446241 0.38254616
000180 71 40 30 3d 4e 1e 77 be 5b 7c 42 be 12 4a ad bc
       0.043030206 -0.24132654 -0.1899275 -0.021153484
000190 b4 69 a4 be 26 dc ba bd 08 19 b0 3e b9 71 20 be
       -0.32111895 -0.09124021 0.34394097 -0.15668382
0001a0 5d 18 33 3e 09 5d c7 3e a0 03 88 bd 70 da b7 be
       0.17489763 0.38938168 -0.066413164 -0.35908842
0001b0 e9 b6 af be 00 f5 90 3e 37 a5 6a bd c2 b0 cd 3c
       -0.34319237 0.2831192 -0.057286467 0.025108699
0001c0 0c 4d b2 be cb fc 7d be f1 ae 0f be ee 02 c4 be
       -0.34824407 -0.24803464 -0.14031579 -0.38283485
0001d0 30 fb 78 3e fe 48 01 3e 9e ee c4 be 4a c0 9e 3e
       0.2431457 0.126255 -0.384633 0.3100608
0001e0 0a 7d fe bb 01 a8 90 3e 04 bd 45 3e 5b a0 d6 be
       -0.0077663707 0.28253177 0.19310385 -0.41919217
0001f0 46 fe 3f 3e 84 8a 52 be 80 6c 67 be 2d 42 35 3d
       0.18749341 -0.20560652 -0.22599983 0.044252563

imputation_module.deep.layers.4.bias f4 [4]
000000 fc 82 9b bc ea b3 cf 3c cc d0 d9 bc 3f 69 91 bc
       -0.018983357 0.025354344 -0.02658882 -0.01775038

imputation_module.cross.cross_layers.0.w f4 [4]
000000 ed b9 a7 bf c4 48 d1 bd d2 6e 9a 3e a2 09 99 3f
       -1.3103615 -0.10218957 0.30162674 1.1956065

imputation_module.cross.cross_layers.0.b f4 [4]
000000 e3 e5 ac bc 87 bf db bf 15 e6 87 3d 6e 00 4d bf
       -0.021105712 -1.7167825 0.066356815 -0.8007878

imputation_module.cross.cross_layers.1.w f4 [4]
000000 e7 3a 9f bd df e5 4a 3f 83 91 bc 3f 36 c3 af 3f
       -0.077749066 0.79257005 1.4731907 1.3731449

imputation_module.cross.cross_layers.1.b f4 [4]
000000 ee b4 c5 3e c9 66 f2 be c5 e0 b4 3e 38 ea d2 3f
       0.386146 -0.47344044 0.35327736 1.6477728

imputation_module.cross.cross_layers.2.w f4 [4]
000000 d2 f7 dc 3e 0d 2d fa bf 86 54 2c bf 41 1c 59 3f
       0.43157822 -1.9544998 -0.6731647 0.8480874

imputation_module.cross.cross_layers.2.b f4 [4]
000000 d4 e9 7a bf 5e a4 fb bd 19 c3 d9 3f 27 9f c8 bc
       -0.98013043 -0.1228721 1.7012664 -0.024489952

imputation_module.cross_deep.0.cross_layers.0.w f4 [4]
000000 ed b9 a7 bf c4 48 d1 bd d2 6e 9a 3e a2 09 99 3f
       -1.3103615 -0.10218957 0.30162674 1.1956065

imputation_module.cross_deep.0.cross_layers.0.b f4 [4]
000000 e3 e5 ac bc 87 bf db bf 15 e6 87 3d 6e 00 4d bf
       -0.021105712 -1.7167825 0.066356815 -0.8007878

imputation_module.cross_deep.0.cross_layers.1.w f4 [4]
000000 e7 3a 9f bd df e5 4a 3f 83 91 bc 3f 36 c3 af 3f
       -0.077749066 0.79257005 1.4731907 1.3731449

imputation_module.cross_deep.0.cross_layers.1.b f4 [4]
000000 ee b4 c5 3e c9 66 f2 be c5 e0 b4 3e 38 ea d2 3f
       0.386146 -0.47344044 0.35327736 1.6477728

imputation_module.cross_deep.0.cross_layers.2.w f4 [4]
000000 d2 f7 dc 3e 0d 2d fa bf 86 54 2c bf 41 1c 59 3f
       0.43157822 -1.9544998 -0.6731647 0.8480874

imputation_module.cross_deep.0.cross_layers.2.b f4 [4]
000000 d4 e9 7a bf 5e a4 fb bd 19 c3 d9 3f 27 9f c8 bc
       -0.98013043 -0.1228721 1.7012664 -0.024489952

imputation_module.cross_deep.1.layers.0.weight f4 [64, 4]
000000 64 47 94 3e cc cf 62 be b8 55 85 3e 67 62 1e be
       0.28960717 -0.2214958 0.2604196 -0.15467225
000010 8d b0 44 be 14 19 62 bd 62 eb 01 3e 7c e1 ef 3d
       -0.19207974 -0.055199698 0.12687448 0.117129296
000020 b4 df 7d be a1 90 64 3d 57 21 f5 bd e4 d3 0b 3e
       -0.24792367 0.05580199 -0.1196925 0.13655049
000030 64 0c 46 3e 4a 5a 3a bc 1b 89 df 3a 86 01 c2 3d
       0.19340664 -0.011374066 0.001705441 0.09472947
000040 f4 09 19 3e cb 8b 2f 3d 1c e6 10 be 57 65 a4 3d
       0.14945203 0.042857926 -0.1415028 0.080271415
000050 cf 4a 3e 3e c6 dc 4e be cc 79 db 3b 79 de 4c 3e
       0.18583225 -0.20201406 0.006697869 0.20006742
000060 c8 f7 08 bd cc 26 68 be 7c 1c 48 3e 51 42 2d 3e
       -0.033439428 -0.2267105 0.19542116 0.16919829
000070 7a 59 74 3e eb 52 ec 3d 63 f1 16 be 28 aa 36 3d
       0.23862258 0.11539253 -0.14740519 0.044595867
000080 1f c4 6c be 4a 58 dc bd 19 1f 23 be 00 5f dd bc
       -0.2312169 -0.10759027 -0.15929832 -0.027022839
000090 cb 1e 63 3c a8 85 32 3e 38 61 49 be 0c b0 95 3c
       0.013862322 0.17433798 -0.19665992 0.018272422
0000a0 ff 75 ca bd d4 9e f0 bd 5a fb 80 3e 02 c2 0a be
       -0.09885787 -0.11749044 0.25191766 -0.1355057
0000b0 f7 99 33 3e b7 a1 d2 bd cc 94 d0 bd b9 ff 0a be
       0.17539202 -0.10284751 -0.10184631 -0.13574113
0000c0 83 cb 96 be e9 f7 74 be 5d f7 0d 3d 70 bd 02 3d
       -0.29452142 -0.23922695 0.034659732 0.031918943
0000d0 1f 9d 2c bd 68 e0 7b 3d d5 39 92 3e 20 a8 b8 bd
       -0.04214203 0.061493307 0.28559747 -0.09016442
0000e0 32 3c dd bd 99 d1 e6 bd 88 cf 43 3e 99 f4 29 be
       -0.10802497 -0.11270446 0.19122136 -0.16597213
0000f0 1f 06 38 3c dd 49 83 be f2 13 78 bd 0c 5e 8d 3d
       0.011231928 -0.2564229 -0.060565896 0.06902704
000100 7a 0b 8f be 24 9f 76 3e 34 28 33 3e 5f 7d 1c bc
       -0.27938443 0.24084145 0.17495805 -0.009551375
000110 f2 73 3f 3e 19 60 0a bd 91 04 5c 3e a9 48 14 3e
       0.18696573 -0.033783052 0.21486117 0.14480843
000120 66 46 e6 bd 74 d4 58 be 73 16 1c be af d2 97 3e
       -0.11243896 -0.21174794 -0.15242939 0.29652926
000130 9a 72 2f 3b 88 d5 40 be 5c 2b 58 be d7 07 72 3e
       0.0026771189 -0.18831456 -0.2111029 0.23635803
000140 67 ec ac bd 94 7b 29 be b4 68 62 be 16 56 16 3d
       -0.08443528 -0.16551048 -0.22110254 0.03670319
000150 b0 ed 12 bc a9 b0 ee bb 6e 5d 6b 3e 9f ba 90 be
       -0.008967802 -0.007284243 0.2298486 -0.2826738
000160 c4 24 18 be 68 1a 23 3e 2a 23 9b 3e 34 7b c3 3d
       -0.14857775 0.15928042 0.30300266 0.095449835
000170 c4 48 33 3e 0d 82 59 3b 6c 25 40 bb a2 d7 43 3e
       0.17508227 0.0033189089 -0.002931918 0.19125226
000180 99 07 8a be ec 2f ad 3d 0f 7b 7c 3d cb bf 4f 3d
       -0.26958922 0.08456406 0.061640795 0.050720017
000190 74 e6 00 3e 50 c7 05 be f4 0d 3d 3e f8 4e 3c be
       0.12587911 -0.13064313 0.18462354 -0.18389499
0001a0 16 62 08 be 61 36 ff bd a3 64 9a 3d 5e 58 97 be
       -0.13318667 -0.12461544 0.07538726 -0.29559606
0001b0 36 00 8f 3e f1 ae ca 3c 53 2b 5f bd 69 be 50 be
       0.27929848 0.024741622 -0.054484677 -0.20385136
0001c0 7f 41 7e be 27 58 82 3d 82 89 31 be 7f 8f 0a 3d
       -0.24829672 0.0636447 -0.17337611 0.033828255
0001d0 c1 c3 a9 bd cf 2b a7 be fe 9d 90 3e 57 9e 14 3d
       -0.0828929 -0.3265061 0.28245538 0.036283817
0001e0 99 89 57 3d c8 3b 0f be a2 ad eb 3c 35 ab 85 3e
       0.052621458 -0.13987648 0.028769318 0.26107183
0001f0 fd ae 74 be f2 6e bc bd 48 2b e1 bd 27 5c 1a 3e
       -0.23894878 -0.09200849 -0.10994583 0.15074216
000200 2c 54 68 3e eb 7c 5e b9 38 7f 60 be 07 c7 ca be
       0.22688359 -0.00021218105 -0.2192353 -0.3960497
000210 db e8 b6 bd 61 85 8c 3d eb 13 75 3e 65 57 0f be
       -0.089311324 0.068613775 0.2393338 -0.13998182
000220 a1 cf bc bd 26 ea 3b bc a2 d6 ed bc f3 79 57 3d
       -0.092192896 -0.0114694 -0.029033009 0.052606534
000230 1a aa 62 be b9 ca 55 3e 3f af a8 bd 10 cc 38 be
       -0.22135201 0.20878114 -0.082365505 -0.18046594
000240 00 b4 8c be 7a 29 98 be 03 ba 98 3e ec 89 63 3e
       -0.2748108 -0.29719144 0.29829416 0.22220582
000250 30 97 70 3e 67 21 57 3d 17 40 cb bd 8e 8c 66 be
       0.23495173 0.05252209 -0.099243335 -0.22514555
000260 d7 fa 8b 3e 6d a5 58 be 88 86 b2 3d 9c 7e f1 3d
       0.27339813 -0.21156855 0.08717066 0.11791727
000270 97 0c 1f be 23 a9 ab 3e b9 3c 3a 3e 83 f3 f2 bd
       -0.15532146 0.3352748 0.18187226 -0.118628524
000280 e7 3d 20 bd c4 7f 81 3e 54 4f 97 3e 36 4b 13 be
       -0.039121535 0.2529279 0.2955271 -0.1438416
000290 b8 af 7f 3e 6e 4c 43 be 05 ce 7e 3e 33 49 84 3d
       0.24969375 -0.19072124 0.24883278 0.06459274
0002a0 f3 eb 99 3d 6a bc 5a be b5 6e 91 be 01 64 ff 3d
       0.07515707 -0.21360937 -0.28404775 0.12470246
0002b0 fe 08 5c be 04 ee 85 3e b6 63 94 3e 32 64 40 be
       -0.21487805 0.26158154 0.28982323 -0.18788221
0002c0 37 45 24 3a 6f 9a fa bd d4 78 fa 3d e8 9d d3 bc
       0.00062664173 -0.12236487 0.122300774 -0.025832132
0002d0 55 58 59 3c 27 46 60 be 98 5f b7 3d e5 7b ba 3d
       0.013265689 -0.21901761 0.0895378 0.09105662
0002e0 bd 87 e1 3d 6b c3 1f 3e ca 72 88 be 88 2a 62 3e
       0.11012218 0.1560189 -0.26650077 0.22086537
0002f0 e4 d6 5c 3d 76 5d 33 bd e5 25 0b 3e 8c e0 59 3c
       0.053915873 -0.043790303 0.13588674 0.013298165
000300 ca 9b 84 3d 88 8a 97 be 1e 4c 93 bd 3d f2 dd bd
       0.06475027 -0.29597878 -0.071922526 -0.10837219
000310 75 d1 86 3e aa 8a 26 3e 5b d4 86 be 34 80 6c 3c
       0.26331678 0.16263834 -0.2633389 0.014434863
000320 52 cf 74 be 1b d0 83 be b9 15 0c bc 81 27 8c 3e
       -0.23907211 -0.2574471 -0.008550101 0.2737389
000330 51 f1 6e 3d ee 21 54 3e 67 73 4f 3e 6a df e8 3b
       0.058335606 0.20716068 0.20258866 0.007106711
000340 e4 f3 13 be e9 78 a2 3e 9c c9 e4 bc 05 b2 80 3d
       -0.14448506 0.31732872 -0.027928166 0.062839545
000350 7d 18 1f be 1a f2 c7 bd 79 c3 80 be bd 86 16 be
       -0.15536685 -0.09762974 -0.25149134 -0.14699836
000360 2f 2b 4c bd ab ca 18 3b 45 25 72 3e e4 41 26 be
       -0.04984587 0.002331416 0.2364703 -0.16236073
000370 4b 44 84 3e 7e a9 b4 bd 9c 74 65 be 46 3f ed 3c
       0.25833353 -0.088213906 -0.22407764 0.028960835
000380 bc 1d d4 bb fa 60 74 3d ac 8c 82 3e 79 d3 dd 3d
       -0.006473271 0.059662797 0.2549795 0.10831351
000390 da e2 f0 3d 97 a0 91 be e4 fe 5c be 7a a5 89 3e
       0.117620185 -0.28442833 -0.21581608 0.2688406
0003a0 52 33 46 be f1 d6 10 3d 5c 0a 30 3e cc 1c 8b 3e
       -0.19355515 0.035361234 0.17191452 0.27170408
0003b0 d9 8e 27 be 05 70 1e 3c e2 bf 8c 3e 3b 08 ae bd
       -0.16363086 0.009670262 0.27490145 -0.084976636
0003c0 26 2d 9a 3d 75 44 38 bd 65 23 18 3e ae be 37 be
       0.07528143 -0.04498716 0.14857252 -0.17943832
0003d0 d7 1f 2f 3e 75 bb 99 3e 28 8d 80 bd f3 2b 64 3e
       0.1710199 0.3002583 -0.062769234 0.2228239
0003e0 6b 6e 7d 3e 27 6e 5b be 70 dd 98 3d ee f1 f7 3d
       0.24749152 -0.21428739 0.07464111 0.12106691
0003f0 56 4d 42 3d ea e6 d2 3d c5 f3 8f 3e 98 d1 17 be
       0.047437035 0.102979496 0.2811567 -0.14826047

imputation_module.cross_deep.1.layers.0.bias f4 [64]
000000 cc 64 83 bc 46 ee f6 3c e7 5f 0a 3d 32 f2 ce bc
       -0.016039275 0.030142915 0.033782866 -0.025261972
000010 2c aa a5 b9 a0 7c 78 3c c5 a8 b5 3c 2b e5 97 bb
       -0.0003159804 0.015166432 0.022175202 -0.0046354732
000020 22 3c a1 3b 06 fd ae 3c 93 8f 64 3d 11 8d 78 be
       0.0049204985 0.021360885 0.055800986 -0.24272563
000030 36 7d 03 3d 8b 0b 0b bc 68 ac 9b 3c 45 72 0a 3d
       0.032101832 -0.008486639 0.019003108 0.033800382
000040 6f 3b 1f bd bc c0 25 bc 87 e5 a6 3c 96 60 9d bb
       -0.03887504 -0.010116752 0.020373119 -0.0048027737
000050 af 44 57 3b f4 e6 96 bd 4c dd 71 3d b2 46 2d bd
       0.0032847335 -0.073682696 0.059048936 -0.04230375
000060 21 c7 b6 bb a9 b6 e7 3b c2 f3 e0 b9 4b 21 4f b9
       -0.0055779372 0.0070713353 -0.00042906223 -0.00019753461
000070 82 53 43 3d cf 33 b1 3c 33 ad 3c bc 72 8a 0c bd
       0.04768706 0.02163115 -0.011515903 -0.03431172
000080 28 6f ec ba 17 32 1f 3d cd 5f 1a 3d 50 8f 2f bd
       -0.0018038498 0.03886613 0.03768902 -0.042861283
000090 6f 9e a0 3d a0 3b 9b be de 44 88 3b 62 97 f9 3c
       0.07842719 -0.30318928 0.0041586002 0.030467693
0000a0 7a 45 0f 3b 63 00 d9 bc 51 71 10 3c 9f 8a 39 bc
       0.002186148 -0.026489442 0.008816079 -0.011324554
0000b0 84 99 8e bb 9f ed 2c 3d 14 f4 69 3c ad ce 10 3c
       -0.0043517966 0.0422188 0.014279384 0.008838338
0000c0 8c bf 16 3d 78 53 90 ba 1f ca 0f 3d de f3 00 bb
       0.036803767 -0.0011011204 0.035104867 -0.0019676606
0000d0 54 fd 80 3d 2d 52 b3 3b f4 56 41 3d 01 90 6d bb
       0.062983185 0.0054724426 0.047202066 -0.0036249163
0000e0 e7 ea b6 bb 42 6b d8 3c a7 d2 01 bd 3f 21 c1 bb
       -0.0055822018 0.026418332 -0.031695034 -0.005893856
0000f0 b4 34 c1 3c 2b 7a 2e 3c e1 70 03 bd b3 42 71 3c
       0.023584701 0.010649244 -0.03209007 0.014725375

imputation_module.cross_deep.1.layers.2.weight f4 [32, 64]
000000 0f 77 2d be fd 85 81 bd 67 d5 3d be 99 4c 48 3c
       -0.16939948 -0.06324384 -0.18538438 0.012225294
000010 12 86 4f 3e 56 fd 43 3e da b0 e1 3c ba 78 ba 3d
       0.20265988 0.19139609 0.02755015 0.09105058
000020 46 8a 30 be d4 db d1 3d ea f3 1f bd 27 c2 cd bd
       -0.17240247 0.10247007 -0.039050974 -0.10046797
000030 12 23 f1 bb 84 b0 bf bc 3e d7 46 bc bc b7 76 3e
       -0.007358917 -0.023399599 -0.012136279 0.24093527
000040 66 06 ac 3e aa f1 8a 3d 4c 4c 04 be b9 60 38 3e
       0.33598632 0.06784375 -0.1291973 0.18005647
000050 60 95 f8 3b 74 63 7d be 35 09 3b be 15 f6 49 3e
       0.0075861663 -0.2474497 -0.18265231 0.19722779
000060 c4 a3 7a bd 4b ba 33 3e 24 7b cf 3d 79 9e 60 3e
       -0.061191335 0.17551534 0.10130909 0.21935453
000070 f9 5e 89 bd 28 fe 59 be 83 9d 56 3c 62 7c f8 3d
       -0.06707568 -0.21288359 0.013099077 0.12133099
000080 cd 8b a4 3d 06 69 16 3e 46 e0 8b be aa 9b ad 3e
       0.080344774 0.14688501 -0.27319545 0.33907825
000090 c4 8b cb 3d 64 6a c1 3d f7 34 5c 3d 93 7a 55 3e
       0.099387676 0.094441205 0.05376145 0.2084754
0000a0 16 12 7b 3e 49 1c 45 be db 9a 2e 3e 83 e7 f4 3e
       0.24518618 -0.19249071 0.1705126 0.4783288
0000b0 b5 6e 4a 3e 88 45 0f be eb d5 e5 bd 16 40 07 3e
       0.19768794 -0.13991368 -0.11222442 0.1320804
0000c0 20 61 f1 bd a8 7f ce bd 50 4e 53 3d af b4 0c 3d
       -0.11786103 -0.10082942 0.051588356 0.034352
0000d0 b4 61 a3 3d e4 fe 5f 3e 55 8c 29 be b9 7b 9c bd
       0.0797762 0.21874577 -0.16557439 -0.07640786
0000e0 83 68 5e 3e bd 5a e0 bd 21 65 46 be a9 8c 1c 3d
       0.21719556 -0.10954807 -0.19374515 0.03822008
0000f0 f3 49 0b 3e 44 23 c7 bd 76 dc bd 3d d1 07 f1 bd
       0.13602428 -0.09723523 0.09270565 -0.11769069
000100 a1 ec 9a 3e 15 d9 3a be 32 ad 27 be 76 ea 56 3d
       0.3025866 -0.18246873 -0.16374663 0.052469693
000110 ec f0 4b 3e 75 6f 0b be 25 b6 37 3d bf 24 3e 3d
       0.19916123 -0.13616736 0.04485144 0.046421763
000120 93 1b 49 3d 0c 1a 3c 3e 26 16 fe bd 81 55 d3 3c
       0.049098562 0.18369311 -0.12406568 0.025797607
000130 b4 2a 83 be 76 46 99 be c1 61 20 3e 71 2c df bc
       -0.25618517 -0.2993657 0.1566229 -0.027242871
000140 6a 09 e5 3b 4e 56 89 3d 86 e3 b7 3d 3a 2b 03 3e
       0.0069896476 0.067059144 0.089789435 0.12809458
000150 32 1a 51 3e 31 ff 78 3e 21 13 1b be 1a 6d 4e be
       0.20420149 0.24316098 -0.15144016 -0.20158806
000160 c2 44 24 be bc 6c e9 3d 05 dc 7b bb ec cc ee bd
       -0.16041854 0.113976926 -0.0038430702 -0.116601795
000170 78 73 1b 3e 33 df 26 3e b6 28 f2 bd 0a c1 fc bd
       0.15180767 0.16296081 -0.11824171 -0.12341507
000180 68 eb 62 3d 41 34 9b be 59 9c c6 3d 93 f0 45 3e
       0.055400282 -0.30313304 0.0969779 0.19330053
000190 e1 21 a4 be 59 ea 10 be 54 6c 47 be a5 a3 24 be
       -0.32057098 -0.14151897 -0.19474918 -0.1607805
0001a0 49 c2 c9 bd fa ec c7 bc 67 61 c9 bc 6d b6 74 be
       -0.0985151 -0.024404991 -0.024582578 -0.23897715
0001b0 9a d7 88 bd 96 a5 16 3e 5f 9e 39 3e 33 2d 33 be
       -0.06681748 0.14711604 0.1812682 -0.17497711
0001c0 c9 91 32 3e b9 c5 fa 3d dd 4a 01 be cd 4f 58 3e
       0.17438425 0.12244744 -0.12626214 0.21124192
0001d0 c6 76 23 be a3 b3 b1 3d 9b 85 ad bd fa aa ea 3d
       -0.15963277 0.08676841 -0.08472749 0.114583924
0001e0 fa 49 90 3c 8c a0 5d be 7b a7 6a be f5 7c c0 be
       0.0176134 -0.21643275 -0.22915451 -0.37595335
0001f0 0c 2c db 3d 77 b2 49 3d 34 57 12 3e 40 35 5e 3a
       0.10701761 0.049242463 0.14291078 0.0008476563
000200 26 9c 0b 3e 66 1c 77 be 62 9a b6 bd 60 7b c8 bc
       0.13633785 -0.24131927 -0.08916165 -0.024472892
000210 cd 35 3a ba fe 4d 6d 3e ce 4b 84 bd b6 2d 58 be
       -0.0007103354 0.23174283 -0.06459771 -0.21111187
000220 3c 94 47 3e a9 a4 72 be 63 fd de bd ac d4 82 3e
       0.1949014 -0.23695625 -0.108881734 0.2555288
000230 00 a9 ae bd 18 08 b0 be 22 13 92 3e 1b 38 20 3e
       -0.08528328 -0.34381175 0.28530222 0.15646403
000240 f7 09 ba 3d 5a 88 8d be eb f2 2b be 13 50 b6 3d
       0.09083932 -0.2764309 -0.16791885 0.08901992
000250 d5 d9 e9 3c 82 3c 1d 3e fd e6 3c 3e e4 8f 91 3d
       0.028546253 0.15355113 0.1844749 0.07107523
000260 16 c2 8f be df 71 6a 3e ee f5 13 3a 9a 1e d4 3d
       -0.28077763 0.22895001 0.00056442514 0.10357399
000270 15 da 23 be e1 3e 06 bd 09 eb 87 be ea f7 c2 bd
       -0.1600116 -0.03277481 -0.26546505 -0.09519942
000280 4e 7b 86 3e 95 d9 c8 be dc 06 70 3e fc e4 67 be
       0.2626595 -0.39228502 0.23440117 -0.22645944
000290 df 39 13 bf 57 2b 42 3e df 44 ef 3d 14 e3 07 be
       -0.5751018 0.18961845 0.11683058 -0.13270217
0002a0 db e4 3e be 8b f6 44 3e 9b 12 2b be 65 06 0a be
       -0.18641989 0.19234674 -0.16706316 -0.13479002
0002b0 52 7c 0f be e7 f0 97 3d 83 b2 58 3e a0 fb 0e 3e
       -0.14012268 0.07418995 0.21161847 0.13963175
0002c0 e6 e1 a7 3d fb 70 08 3d 75 0c 03 bd 97 d7 e0 3e
       0.081973836 0.03331087 -0.0319943 0.43914482
0002d0 63 e6 87 3e ed 4b aa 3d 03 af c7 be 73 09 a9 bd
       0.2654296 0.08315263 -0.3900071 -0.082537554
0002e0 bf 46 e4 be e1 d2 fc bd eb 72 db 3d 0c 87 d1 be
       -0.44585225 -0.123449095 0.10715278 -0.40923345
0002f0 3a 11 d8 bb 25 64 37 be f3 4e 94 3d 71 b4 85 bd
       -0.0065938504 -0.17909296 0.07241621 -0.06528557
000300 49 72 44 3e 70 a0 8b 3e 0a ab 22 3c 9f eb 6e be
       0.19184221 0.27270842 0.009928474 -0.2333207
000310 8e 4f 5c be 84 95 cb bc 64 47 06 3e 72 1c bc be
       -0.21514723 -0.024851568 0.13113171 -0.36740452
000320 c2 67 01 be 8e f1 98 3e 8d d6 0b 3e 5d 06 3d 3e
       -0.12637237 0.29871792 0.13656063 0.18459459
000330 9f fe bf 3d 9f f8 41 be 9a 60 96 bd 74 06 0d be
       0.09374737 -0.18942498 -0.07342644 -0.13771993
000340 25 3e 06 be 26 87 4b 3e 62 70 91 bd f2 24 aa bd
       -0.13109644 0.19875774 -0.071015134 -0.08307828
000350 46 d7 b6 be 91 29 00 3e 4a c4 7d 3e f7 e9 00 bd
       -0.35711116 0.12515856 0.2478191 -0.031473126
000360 1a 30 cd bd 0c 49 de bd fc 68 2e 3e f3 01 a7 be
       -0.1001894 -0.10853776 0.17032236 -0.32618675
000370 a3 4d ea 3d e2 9e 18 3d 30 2b 15 3e fe 5a aa bd
       0.11440589 0.037260897 0.14567256 -0.08318137
000380 1a 0a e6 bc 43 d4 45 3e 7d 9a e0 bd 6c ed be bd
       -0.028080989 0.19319253 -0.10966966 -0.093226284
000390 7f ac 92 3e 62 1e 90 3e d9 93 86 bd fa d4 ba bd
       0.2864723 0.2814818 -0.065711685 -0.09122653
0003a0 ae af e3 bc 40 03 99 3d 6c 7d 8a 3e d6 39 d6 bd
       -0.027793732 0.07471323 0.27048814 -0.1046025
0003b0 5a e7 fc 3d 1a a8 10 3e e2 6b b4 3d 8d 17 a3 bc
       0.12348814 0.14126626 0.088096395 -0.01990869
0003c0 33 08 55 3d 6f b0 be be cd e1 c1 bd 9b f2 35 be
       0.052009773 -0.37243983 -0.09466896 -0.17768328
0003d0 d7 dd 54 3e 3e 38 53 be 0c 70 99 3e f5 cb e5 bd
       0.2078775 -0.20626923 0.29968297 -0.11220542
0003e0 13 e6 d7 3d 3f 7b 24 3e 1a b9 4e 3e 1e c8 fe bd
       0.1054193 0.1606264 0.20187798 -0.12440513
0003f0 24 6d 73 bc d4 d2 d1 3d 1f 96 06 3d 8c 59 4e bd
       -0.014857564 0.102452904 0.03285801 -0.050378367

imputation_module.cross_deep.1.layers.2.bias f4 [32]
000000 4a 26 24 3c d9 0c 5d be b8 59 72 be 26 bb 49 3d
       0.010018894 -0.21586932 -0.23667037 0.049250744
000010 2a d1 41 3d 28 ee c4 3c 11 eb 70 bc 70 5b 87 3d
       0.047318615 0.024039343 -0.014704482 0.06609237
000020 df 0e 5f bb 87 14 70 3c f8 37 4d 3d 9a c4 ba 3a
       -0.0034035963 0.014653332 0.050102204 0.0014249266
000030 c5 b0 9c 3c 13 af 9b ba a7 a2 ea 3c 97 00 83 bd
       0.019127259 -0.0011877738 0.028642012 -0.06396597
000040 c5 1b 4d 3d af fb be 3c 18 66 5e 3d 1a 7f f4 bc
       0.05007531 0.023313371 0.054296583 -0.029845763
000050 e0 a9 7a 3c 4c 76 8b bc bc 5f fd 3c b4 21 55 bc
       0.01529929 -0.017024182 0.030929439 -0.013008524
000060 36 23 95 3b 4a 2d 84 bc ec fc 98 bc 4e bc 28 3d
       0.0045513166 -0.016134877 -0.01867529 0.041195206
000070 94 55 be 3c 2e 15 81 3b 59 26 6b 3c 72 1e 51 bc
       0.023234166 0.0039392924 0.0143524045 -0.012763606

imputation_module.cross_deep.1.layers.4.weight f4 [4, 32]
000000 91 35 1f be 06 ff ce bc d3 28 a7 3c bb 05 15 3d
       -0.15547778 -0.025268089 0.020405209 0.036382418
000010 89 c0 e6 bc e9 78 bc 3e e0 f4 ff bd dd 60 66 be
       -0.02816798 0.36810997 -0.12497878 -0.22497888
000020 d4 1b c5 3e 8c 59 2c be ec 4c ab bd 0d 0a 12 3e
       0.38497794 -0.16831034 -0.08364281 0.14261647
000030 10 95 db be e9 bc a0 3e c0 71 c2 be 5c dd 9a 3e
       -0.42887163 0.31394127 -0.3797741 0.3024701
000040 98 bb 43 be 0a 34 a5 be 4e 9b 6e 3e 47 23 bc 3b
       -0.1911453 -0.32266265 0.23301432 0.00574151
000050 87 26 c2 3e 82 5f 75 be 3f 4d 81 3e 2b 31 21 3e
       0.3792002 -0.23962215 0.25254247 0.15741412
000060 aa e3 c6 3e 58 e3 10 3d 49 f4 50 3e 3e 4b 26 bd
       0.3884557 0.035373062 0.20405687 -0.0405991
000070 cc d2 0c be da c9 ca bd a3 76 5e be 53 5b ab bd
       -0.13752288 -0.099017814 -0.21724944 -0.08367028
000080 0c 5f d3 be db cf b6 3e d9 ad c9 3e e6 d2 8e 3e
       -0.41283453 0.35705456 0.39390448 0.27895278
000090 28 22 6c bd f7 7d d3 3e d5 20 10 3e 53 a6 fd 3d
       -0.05764976 0.4130704 0.14075024 0.123852395
0000a0 43 92 d2 3e 57 d5 c2 3e 49 9b c8 bd 0d 7f 83 3d
       0.41127214 0.3805339 -0.09795243 0.064207174
0000b0 33 fd 09 be 28 da ac be 15 0e 0a bc b6 36 6c 3e
       -0.13475494 -0.3376019 -0.008426209 0.23067746
0000c0 fe ca 4d 3e a5 0b 7c be f7 f8 b5 3e 86 db ae be
       0.20096967 -0.24613817 0.35541508 -0.34151858
0000d0 c8 80 ef 3d c0 61 c0 be 7c 44 d0 3e b8 c2 01 3e
       0.11694485 -0.37574577 0.4067725 0.12671936
0000e0 29 a5 e3 3d e6 d3 0b 3e ab 17 9c be b5 08 7a 3d
       0.11115486 0.13655052 -0.30486807 0.06104346
0000f0 3e 00 a3 3e 4f ed 1c 3e 9b ad c6 3e 45 46 2a 3e
       0.31836122 0.15324901 0.38804325 0.16628368
000100 d6 1f cd 3e 8a 08 bd 3d 2c aa c5 be 3a 09 d5 be
       0.4006335 0.09230144 -0.38606393 -0.41608602
000110 33 67 9f be 89 8c 8c 3e 1d b4 6b 3e d4 51 fe bd
       -0.31133422 0.2745097 0.23017927 -0.12417951
000120 88 fd a7 3e dd 2e 3a 3e 62 5a c6 be b1 48 95 3d
       0.32810616 0.1818194 -0.38740832 0.072892554
000130 9c 8b 9a bd b7 43 7a 3e 51 a7 0f be 13 10 d6 bd
       -0.075461596 0.24439894 -0.1402867 -0.10452285
000140 0c 46 34 be ce 58 cd be 2f ab bb be 73 d6 04 3e
       -0.17604846 -0.40106815 -0.3665404 0.12972431
000150 fe 53 c7 be 84 d3 0a be e4 97 b5 bd 2f 50 85 3e
       -0.38931268 -0.1355725 -0.088668615 0.26037738
000160 8b f7 e7 39 b3 69 bc 3e e8 84 c5 3e 71 17 a8 be
       0.00044244187 0.36799392 0.38577962 -0.32830384
000170 b7 ce c2 3e 4f 41 90 3e bd 7e 7a 3e 17 dd c3 3e
       0.38048336 0.28174827 0.2446241 0.38254616
000180 71 40 30 3d 4e 1e 77 be 5b 7c 42 be 12 4a ad bc
       0.043030206 -0.24132654 -0.1899275 -0.021153484
000190 b4 69 a4 be 26 dc ba bd 08 19 b0 3e b9 71 20 be
       -0.32111895 -0.09124021 0.34394097 -0.15668382
0001a0 5d 18 33 3e 09 5d c7 3e a0 03 88 bd 70 da b7 be
       0.17489763 0.38938168 -0.066413164 -0.35908842
0001b0 e9 b6 af be 00 f5 90 3e 37 a5 6a bd c2 b0 cd 3c
       -0.34319237 0.2831192 -0.057286467 0.025108699
0001c0 0c 4d b2 be cb fc 7d be f1 ae 0f be ee 02 c4 be
       -0.34824407 -0.24803464 -0.14031579 -0.38283485
0001d0 30 fb 78 3e fe 48 01 3e 9e ee c4 be 4a c0 9e 3e
       0.2431457 0.126255 -0.384633 0.3100608
0001e0 0a 7d fe bb 01 a8 90 3e 04 bd 45 3e 5b a0 d6 be
       -0.0077663707 0.28253177 0.19310385 -0.41919217
0001f0 46 fe 3f 3e 84 8a 52 be 80 6c 67 be 2d 42 35 3d
       0.18749341 -0.20560652 -0.22599983 0.044252563

imputation_module.cross_deep.1.layers.4.bias f4 [4]
000000 fc 82 9b bc ea b3 cf 3c cc d0 d9 bc 3f 69 91 bc
       -0.018983357 0.025354344 -0.02658882 -0.01775038

imputation_module.deep_cross.0.layers.0.weight f4 [64, 4]
000000 64 47 94 3e cc cf 62 be b8 55 85 3e 67 62 1e be
       0.28960717 -0.2214958 0.2604196 -0.15467225
000010 8d b0 44 be 14 19 62 bd 62 eb 01 3e 7c e1 ef 3d
       -0.19207974 -0.055199698 0.12687448 0.117129296
000020 b4 df 7d be a1 90 64 3d 57 21 f5 bd e4 d3 0b 3e
       -0.24792367 0.05580199 -0.1196925 0.13655049
000030 64 0c 46 3e 4a 5a 3a bc 1b 89 df 3a 86 01 c2 3d
       0.19340664 -0.011374066 0.001705441 0.09472947
000040 f4 09 19 3e cb 8b 2f 3d 1c e6 10 be 57 65 a4 3d
       0.14945203 0.042857926 -0.1415028 0.080271415
000050 cf 4a 3e 3e c6 dc 4e be cc 79 db 3b 79 de 4c 3e
       0.18583225 -0.20201406 0.006697869 0.20006742
000060 c8 f7 08 bd cc 26 68 be 7c 1c 48 3e 51 42 2d 3e
       -0.033439428 -0.2267105 0.19542116 0.16919829
000070 7a 59 74 3e eb 52 ec 3d 63 f1 16 be 28 aa 36 3d
       0.23862258 0.11539253 -0.14740519 0.044595867
000080 1f c4 6c be 4a 58 dc bd 19 1f 23 be 00 5f dd bc
       -0.2312169 -0.10759027 -0.15929832 -0.027022839
000090 cb 1e 63 3c a8 85 32 3e 38 61 49 be 0c b0 95 3c
       0.013862322 0.17433798 -0.19665992 0.018272422
0000a0 ff 75 ca bd d4 9e f0 bd 5a fb 80 3e 02 c2 0a be
       -0.09885787 -0.11749044 0.25191766 -0.1355057
0000b0 f7 99 33 3e b7 a1 d2 bd cc 94 d0 bd b9 ff 0a be
       0.17539202 -0.10284751 -0.10184631 -0.13574113
0000c0 83 cb 96 be e9 f7 74 be 5d f7 0d 3d 70 bd 02 3d
       -0.29452142 -0.23922695 0.034659732 0.031918943
0000d0 1f 9d 2c bd 68 e0 7b 3d d5 39 92 3e 20 a8 b8 bd
       -0.04214203 0.061493307 0.28559747 -0.09016442
0000e0 32 3c dd bd 99 d1 e6 bd 88 cf 43 3e 99 f4 29 be
       -0.10802497 -0.11270446 0.19122136 -0.16597213
0000f0 1f 06 38 3c dd 49 83 be f2 13 78 bd 0c 5e 8d 3d
       0.011231928 -0.2564229 -0.060565896 0.06902704
000100 7a 0b 8f be 24 9f 76 3e 34 28 33 3e 5f 7d 1c bc
       -0.27938443 0.24084145 0.17495805 -0.009551375
000110 f2 73 3f 3e 19 60 0a bd 91 04 5c 3e a9 48 14 3e
       0.18696573 -0.033783052 0.21486117 0.14480843
000120 66 46 e6 bd 74 d4 58 be 73 16 1c be af d2 97 3e
       -0.11243896 -0.21174794 -0.15242939 0.29652926
000130 9a 72 2f 3b 88 d5 40 be 5c 2b 58 be d7 07 72 3e
       0.0026771189 -0.18831456 -0.2111029 0.23635803
000140 67 ec ac bd 94 7b 29 be b4 68 62 be 16 56 16 3d
       -0.08443528 -0.16551048 -0.22110254 0.03670319
000150 b0 ed 12 bc a9 b0 ee bb 6e 5d 6b 3e 9f ba 90 be
       -0.008967802 -0.007284243 0.2298486 -0.2826738
000160 c4 24 18 be 68 1a 23 3e 2a 23 9b 3e 34 7b c3 3d
       -0.14857775 0.15928042 0.30300266 0.095449835
000170 c4 48 33 3e 0d 82 59 3b 6c 25 40 bb a2 d7 43 3e
       0.17508227 0.0033189089 -0.002931918 0.19125226
000180 99 07 8a be ec 2f ad 3d 0f 7b 7c 3d cb bf 4f 3d
       -0.26958922 0.08456406 0.061640795 0.050720017
000190 74 e6 00 3e 50 c7 05 be f4 0d 3d 3e f8 4e 3c be
       0.12587911 -0.13064313 0.18462354 -0.18389499
0001a0 16 62 08 be 61 36 ff bd a3 64 9a 3d 5e 58 97 be
       -0.13318667 -0.12461544 0.07538726 -0.29559606
0001b0 36 00 8f 3e f1 ae ca 3c 53 2b 5f bd 69 be 50 be
       0.27929848 0.024741622 -0.054484677 -0.20385136
0001c0 7f 41 7e be 27 58 82 3d 82 89 31 be 7f 8f 0a 3d
       -0.24829672 0.0636447 -0.17337611 0.033828255
0001d0 c1 c3 a9 bd cf 2b a7 be fe 9d 90 3e 57 9e 14 3d
       -0.0828929 -0.3265061 0.28245538 0.036283817
0001e0 99 89 57 3d c8 3b 0f be a2 ad eb 3c 35 ab 85 3e
       0.052621458 -0.13987648 0.028769318 0.26107183
0001f0 fd ae 74 be f2 6e bc bd 48 2b e1 bd 27 5c 1a 3e
       -0.23894878 -0.09200849 -0.10994583 0.15074216
000200 2c 54 68 3e eb 7c 5e b9 38 7f 60 be 07 c7 ca be
       0.22688359 -0.00021218105 -0.2192353 -0.3960497
000210 db e8 b6 bd 61 85 8c 3d eb 13 75 3e 65 57 0f be
       -0.089311324 0.068613775 0.2393338 -0.13998182
000220 a1 cf bc bd 26 ea 3b bc a2 d6 ed bc f3 79 57 3d
       -0.092192896 -0.0114694 -0.029033009 0.052606534
000230 1a aa 62 be b9 ca 55 3e 3f af a8 bd 10 cc 38 be
       -0.22135201 0.20878114 -0.082365505 -0.18046594
000240 00 b4 8c be 7a 29 98 be 03 ba 98 3e ec 89 63 3e
       -0.2748108 -0.29719144 0.29829416 0.22220582
000250 30 97 70 3e 67 21 57 3d 17 40 cb bd 8e 8c 66 be
       0.23495173 0.05252209 -0.099243335 -0.22514555
000260 d7 fa 8b 3e 6d a5 58 be 88 86 b2 3d 9c 7e f1 3d
       0.27339813 -0.21156855 0.08717066 0.11791727
000270 97 0c 1f be 23 a9 ab 3e b9 3c 3a 3e 83 f3 f2 bd
       -0.15532146 0.3352748 0.18187226 -0.118628524
000280 e7 3d 20 bd c4 7f 81 3e 54 4f 97 3e 36 4b 13 be
       -0.039121535 0.2529279 0.2955271 -0.1438416
000290 b8 af 7f 3e 6e 4c 43 be 05 ce 7e 3e 33 49 84 3d
       0.24969375 -0.19072124 0.24883278 0.06459274
0002a0 f3 eb 99 3d 6a bc 5a be b5 6e 91 be 01 64 ff 3d
       0.07515707 -0.21360937 -0.28404775 0.12470246
0002b0 fe 08 5c be 04 ee 85 3e b6 63 94 3e 32 64 40 be
       -0.21487805 0.26158154 0.28982323 -0.18788221
0002c0 37 45 24 3a 6f 9a fa bd d4 78 fa 3d e8 9d d3 bc
       0.00062664173 -0.12236487 0.122300774 -0.025832132
0002d0 55 58 59 3c 27 46 60 be 98 5f b7 3d e5 7b ba 3d
       0.013265689 -0.21901761 0.0895378 0.09105662
0002e0 bd 87 e1 3d 6b c3 1f 3e ca 72 88 be 88 2a 62 3e
       0.11012218 0.1560189 -0.26650077 0.22086537
0002f0 e4 d6 5c 3d 76 5d 33 bd e5 25 0b 3e 8c e0 59 3c
       0.053915873 -0.043790303 0.13588674 0.013298165
000300 ca 9b 84 3d 88 8a 97 be 1e 4c 93 bd 3d f2 dd bd
       0.06475027 -0.29597878 -0.071922526 -0.10837219
000310 75 d1 86 3e aa 8a 26 3e 5b d4 86 be 34 80 6c 3c
       0.26331678 0.16263834 -0.2633389 0.014434863
000320 52 cf 74 be 1b d0 83 be b9 15 0c bc 81 27 8c 3e
       -0.23907211 -0.2574471 -0.008550101 0.2737389
000330 51 f1 6e 3d ee 21 54 3e 67 73 4f 3e 6a df e8 3b
       0.058335606 0.20716068 0.20258866 0.007106711
000340 e4 f3 13 be e9 78 a2 3e 9c c9 e4 bc 05 b2 80 3d
       -0.14448506 0.31732872 -0.027928166 0.062839545
000350 7d 18 1f be 1a f2 c7 bd 79 c3 80 be bd 86 16 be
       -0.15536685 -0.09762974 -0.25149134 -0.14699836
000360 2f 2b 4c bd ab ca 18 3b 45 25 72 3e e4 41 26 be
       -0.04984587 0.002331416 0.2364703 -0.16236073
000370 4b 44 84 3e 7e a9 b4 bd 9c 74 65 be 46 3f ed 3c
       0.25833353 -0.088213906 -0.22407764 0.028960835
000380 bc 1d d4 bb fa 60 74 3d ac 8c 82 3e 79 d3 dd 3d
       -0.006473271 0.059662797 0.2549795 0.10831351
000390 da e2 f0 3d 97 a0 91 be e4 fe 5c be 7a a5 89 3e
       0.117620185 -0.28442833 -0.21581608 0.2688406
0003a0 52 33 46 be f1 d6 10 3d 5c 0a 30 3e cc 1c 8b 3e
       -0.19355515 0.035361234 0.17191452 0.27170408
0003b0 d9 8e 27 be 05 70 1e 3c e2 bf 8c 3e 3b 08 ae bd
       -0.16363086 0.009670262 0.27490145 -0.084976636
0003c0 26 2d 9a 3d 75 44 38 bd 65 23 18 3e ae be 37 be
       0.07528143 -0.04498716 0.14857252 -0.17943832
0003d0 d7 1f 2f 3e 75 bb 99 3e 28 8d 80 bd f3 2b 64 3e
       0.1710199 0.3002583 -0.062769234 0.2228239
0003e0 6b 6e 7d 3e 27 6e 5b be 70 dd 98 3d ee f1 f7 3d
       0.24749152 -0.21428739 0.07464111 0.12106691
0003f0 56 4d 42 3d ea e6 d2 3d c5 f3 8f 3e 98 d1 17 be
       0.047437035 0.102979496 0.2811567 -0.14826047
